mnist_model.onnx (onnx, 214276 bytes, 10 tensors)

functional_1/dense_2_1/Cast/ReadVariableOp:0 f4 [50, 10]
000000 c4 23 37 be 58 c5 d6 be a8 c8 16 3e df 72 44 be
       -0.17884737 -0.41947436 0.14724982 -0.19184445
000010 6a 23 fe bd 4d 05 0f bf 35 bc a2 bd 73 f1 0e bf
       -0.124090984 -0.55867463 -0.07946054 -0.5583717
000020 26 01 e4 3d c0 9f 6e be d0 23 a8 be 58 b8 aa be
       0.111330315 -0.23303127 -0.32839823 -0.33343768
000030 12 44 4a 3f 2d 63 0e 3f 01 11 4d 3e b9 03 b7 bd
       0.7901012 0.5562008 0.20026018 -0.08936257
000040 6a 50 83 bd b3 fb 0a 3f 25 f6 5e be ab b6 85 be
       -0.06411822 0.5429031 -0.21773584 -0.26115927
000050 b9 b9 20 bf dc 34 9e 3e 9c cd f6 be b9 5d 00 3d
       -0.6278339 0.30899704 -0.48203743 0.03133938
000060 2b 35 c7 3e bb 1b ec 3e b7 62 8c bf f0 01 26 3f
       0.3890775 0.46114907 -1.0967625 0.64846706
000070 01 87 99 be 4a eb 1c 3e 16 fe d2 3d 9e 5a 43 bf
       -0.29985812 0.1532413 0.10302369 -0.76310146
000080 45 52 d3 3e bd 18 89 3e 58 7f 43 bf 3d 97 da 3e
       0.41273704 0.26776686 -0.76366186 0.4269351
000090 ab 49 b4 bd 78 11 f5 3e 04 dd c4 be 1c 9d bd 3d
       -0.088031135 0.4786489 -0.38449872 0.09258482
0000a0 79 33 e5 bd a6 c0 e9 be cc 24 bd be 9a 66 ca be
       -0.11191458 -0.45654792 -0.36942136 -0.39531404
0000b0 02 8d b0 be 64 96 7c be 2f a5 da be 34 56 4a bb
       -0.3448258 -0.24666744 -0.4270415 -0.0030874135
0000c0 37 14 fe be ca ff e1 be bd f3 07 3f 21 4d e1 3e
       -0.49624798 -0.44140464 0.5310629 0.44004157
0000d0 b3 4c a4 3e b0 c9 ba 3e 35 cc d1 3e 87 36 13 3f
       0.32089767 0.36482 0.4097611 0.5750508
0000e0 6d 0a d3 3e 63 6f 05 3f 47 65 1b 3f 7f 7f 66 3e
       0.41218892 0.5212309 0.6070141 0.22509573
0000f0 4a c1 c5 3e ca 35 b9 bd e2 69 c6 3e 9b 3f 56 3e
       0.3862403 -0.090434626 0.38752657 0.20922701
000100 61 1c b5 3e 20 7f d3 3e 33 e7 cd 3e 89 18 03 3f
       0.35373214 0.41307926 0.40215454 0.5120931
000110 d1 62 06 3e 47 32 10 bd c1 95 60 3f 73 07 46 be
       0.13123633 -0.0352042 0.87728506 -0.19338779
000120 ee 2d 8b bf d2 c4 72 3e ba 2b 18 3f 9e d2 08 3f
       -1.0873392 0.23707893 0.5944172 0.53446376
000130 22 b9 1d bf f8 9e 14 3f b5 42 19 bf ee 89 dc 3e
       -0.61610615 0.5805507 -0.5986741 0.43073982
000140 87 7c 58 be 7d 5c b8 3d 10 10 b2 be 58 48 a8 bc
       -0.21141253 0.09002016 -0.3477788 -0.020542309
000150 a0 42 a9 bd f0 6b 9f be 6f 2d 3f bd e2 c5 95 be
       -0.08264661 -0.31137037 -0.04667419 -0.29252535
000160 8f f2 03 bd 11 48 f9 be 71 4b 89 be 32 b3 bb 3e
       -0.032213744 -0.48687795 -0.2681537 0.36660153
000170 82 6f 4d bf 54 36 ea be b5 4a 03 bd b3 13 93 3e
       -0.8024827 -0.45744574 -0.032053668 0.28725967
000180 b0 9d 66 3e 2f ed 27 3e 3b 9b a7 3e 72 6b fc 3d
       0.2252109 0.16399072 0.3273562 0.12325181
000190 88 24 3d 3e 63 7c a5 3e 03 89 cc 3e 4b 54 8e 3e
       0.18470967 0.32321462 0.39948282 0.27798685
0001a0 37 2f 03 3f 19 cf c0 3e e4 32 ef 3d 26 d0 eb 3d
       0.5124392 0.37658003 0.116796285 0.115143105
0001b0 ce 8a d6 3e 79 4a e0 3e 32 3f 5d 3f f9 e1 b7 be
       0.41902775 0.43806818 0.86424553 -0.3591459
0001c0 86 34 42 bf 4f 7f fd 3e 87 b0 d1 be 21 db 0c be
       -0.75861394 0.4951119 -0.40954992 -0.13755466
0001d0 a6 d0 08 bf 03 72 3f 3f b6 cf 82 3d 32 60 07 3e
       -0.5344337 0.74783343 0.06387274 0.1322029
0001e0 ed 20 9a be fb a1 54 3c f4 b0 ea be 42 25 8c bd
       -0.30103245 0.012978072 -0.4583813 -0.06843044
0001f0 c2 cb d7 bd 09 d1 f0 be cd 9c c1 be ce ce 3c be
       -0.105369106 -0.4703448 -0.37814942 -0.18438265
000200 84 39 97 be 22 bd 58 be b3 87 df be 1c 28 96 bd
       -0.29536068 -0.21165898 -0.43658218 -0.07331869
000210 86 15 bd 3e 21 71 ee 3e ed ac cc be 9a 5e f6 3d
       0.36930484 0.46570686 -0.39975682 0.120297626
000220 76 7e 02 be a0 49 4c bf f5 db 1a be 93 e5 b9 3e
       -0.12743554 -0.7979984 -0.1512297 0.36307964
000230 59 75 9f be 05 22 de be e9 e1 fa be f7 a6 e4 be
       -0.31144217 -0.4338533 -0.4900048 -0.44658634
000240 a3 69 13 bf 25 73 1a bf ac f5 49 be 1a 9c 9b be
       -0.57583064 -0.60331947 -0.19722623 -0.30392534
000250 00 e3 bd be 87 ba df bd b3 6b 07 bf 6c 94 2c 3f
       -0.3708725 -0.10924249 -0.5289871 0.67413974
000260 98 5d 28 bf 38 48 af be 00 d3 2e 3f dd b8 0b bf
       -0.6576781 -0.34234786 0.6829071 -0.54578954
000270 fe 95 3f bc 7a b4 8f 3e ba c7 ba be f7 8f 1c 3f
       -0.011693476 0.2806738 -0.36480504 0.6115717
000280 b3 86 7d be 83 ff d6 be a9 b1 07 3b 5a 4d 28 be
       -0.24758415 -0.41991815 0.002070526 -0.16435757
000290 97 b8 8d be 64 95 17 bf 6e 85 61 be 27 c9 cd be
       -0.27679893 -0.59212327 -0.22023556 -0.4019253
0002a0 a0 11 8b be 05 d3 89 be 0e d3 94 3e cd 17 c6 3d
       -0.27161884 -0.26918808 0.29067272 0.096725084
0002b0 0c 92 a8 bc 5d 05 06 3f c0 34 bf 3e 74 6a 0b 3f
       -0.020577453 0.52351934 0.37344933 0.5445931
0002c0 30 b8 a6 3e 73 25 03 3f 84 a6 f4 3e 8f 9f 02 3f
       0.325624 0.5122902 0.4778329 0.5102472
0002d0 6e e4 11 3f 7f 2d fc 3e de d2 11 3e 1f ad 3b bf
       0.5698918 0.4925346 0.14240596 -0.73311037
0002e0 23 0a 81 be d6 67 c4 be 3e e9 06 bf 64 b2 c8 3e
       -0.25203046 -0.3836047 -0.5269965 0.391986
0002f0 6b f9 1c bf c0 2e 8a 3e 05 83 23 be 79 f4 f9 be
       -0.6131808 0.26988792 -0.15967949 -0.4881933
000300 b8 7a f8 be 33 be 8d be 4f 22 05 bf 27 f7 bd be
       -0.48531127 -0.27684173 -0.52005476 -0.37102625
000310 46 81 ef be 8b 34 02 bf b6 24 c7 be 67 93 36 be
       -0.46778315 -0.50861424 -0.38895196 -0.17829667
000320 5e c1 d1 3e ba df 29 3f 42 13 18 bf 68 95 ee 3e
       0.4096784 0.66357005 -0.59404385 0.46598363
000330 44 23 29 bf da 75 15 3f e9 c0 63 bf ce f2 71 be
       -0.66069436 0.5838295 -0.8896623 -0.23627779
000340 a1 98 f3 3e e9 2b c8 3e 82 a7 a0 be 90 af f8 be
       0.47577384 0.39096 -0.31377798 -0.48571444
000350 5d 2b 9c bd e7 30 a1 be f6 b1 fc be dc 0c df be
       -0.076254584 -0.31482622 -0.49354523 -0.43564498
000360 3f c1 03 be bb 1f ea bd 17 27 ea be 27 47 79 be
       -0.12866686 -0.11431833 -0.45732948 -0.24343549
000370 65 18 ab be ab b9 1b be fe 2a 0e 3d 9d 1b 58 3f
       -0.3341705 -0.15207545 0.03470897 0.84417135
000380 72 07 2e be 9d 59 2a bf d5 35 37 be 5e e2 60 3f
       -0.16995028 -0.6654299 -0.17891629 0.8784541
000390 1e 8c 11 bf 26 50 6f 3f 4f aa fa be de 22 00 bf
       -0.56854427 0.9348167 -0.4895806 -0.50053203
0003a0 f2 b0 1e be c0 74 df be 59 20 2b be f0 e9 1b bf
       -0.15497187 -0.4364376 -0.16711558 -0.60903835
0003b0 af 03 08 bf 59 d7 c5 be 37 94 b8 be 87 64 d2 bd
       -0.5313062 -0.3864086 -0.3605058 -0.1027308
0003c0 3b e9 bd 3e 54 eb 8d be 56 09 c2 be ad df 18 3f
       0.37092003 -0.27718604 -0.37897748 0.597163
0003d0 b1 6c 29 bf 94 88 9e be 81 2b 19 bf 64 42 ec 3e
       -0.66181475 -0.30963576 -0.59832007 0.46144402
0003e0 f1 0d 28 bf 5c 63 52 3f 33 b0 26 3d 1f fc 77 be
       -0.6564627 0.8218286 0.04069538 -0.2421727
0003f0 16 28 1b 3e f2 7f e0 be 71 a3 1f bf 16 97 c6 3e
       0.1515201 -0.43847615 -0.62358767 0.38787144

functional_1/dense_2_1/BiasAdd/ReadVariableOp:0 f4 [10]
000000 c7 98 40 be 89 78 59 be 55 52 5f be 4e aa 87 be
       -0.1880828 -0.21237387 -0.21808751 -0.2649712
000010 0c f6 77 be 2d 54 87 be e5 14 6b be 7e 7f 79 be
       -0.24214953 -0.2643141 -0.2295719 -0.2436504
000020 cb 40 7c be 08 5f 87 be
       -0.24634092 -0.2643969

functional_1/dense_1_2/Cast/ReadVariableOp:0 f4 [50, 50]
000000 fc 63 22 3f ec 32 2b 3f a6 f8 92 be 29 61 8c be
       0.63433814 0.66874576 -0.2870533 -0.27417877
000010 86 89 da bd 79 6e a6 bd cc 36 64 be 45 4b 23 be
       -0.10670762 -0.0812654 -0.22286528 -0.15946682
000020 8b b2 ad 3d f0 90 69 be 13 6a 25 bd f4 1e df bd
       0.0848132 -0.22809196 -0.040384363 -0.10894576
000030 24 71 ea 3e 69 64 ae 3d 77 f4 c2 3d 8b de 51 3e
       0.45789444 0.085152455 0.09519284 0.2049505
000040 04 89 15 3e d1 ac 91 be 78 c1 3d 3b 4f e7 03 be
       0.14603049 -0.2845216 0.0028954428 -0.12881206
000050 9c de 9b ba e3 28 9d bd 38 58 49 3f 19 f8 b8 3c
       -0.0011891904 -0.07673814 0.78650236 0.02257924
000060 74 22 51 3e 60 9f b3 3d ce 11 ba be 9d 30 34 be
       0.20423299 0.08770633 -0.3634171 -0.1759667
000070 23 93 29 3f c2 6b 8a be ee b1 56 3e 88 62 3c be
       0.6624014 -0.27035338 0.20966312 -0.18396962
000080 4a 48 83 be 3b 8c 41 be e4 23 28 bf e6 ef 1d be
       -0.2564109 -0.1890115 -0.65679765 -0.15423545
000090 7e 8d e8 3e 78 a0 bc 3e 19 44 2a be 1e 46 bc 3e
       0.4542045 0.36841178 -0.1662754 0.36772245
0000a0 4f 53 67 3f c4 de 6d 3f 5e 1f 07 be c0 4d 30 3f
       0.90361494 0.9291804 -0.1319556 0.6886864
0000b0 55 85 07 3e 6c b6 08 be 9d 6d 02 bf c4 5c 28 bd
       0.13234456 -0.13350838 -0.50948507 -0.041104093
0000c0 34 76 d5 3d 8f 75 33 3f c4 b5 3a bd 08 71 06 bd
       0.10422936 0.70101255 -0.0455835 -0.03282264
0000d0 34 89 72 3c cb 73 65 3d 71 10 63 be 50 46 a4 3e
       0.01480322 0.056018632 -0.2217424 0.32084894
0000e0 35 05 76 3c c6 cb 4b be c9 c8 91 be 1f 0f 48 be
       0.01501589 -0.19901952 -0.284735 -0.19537018
0000f0 a2 cb 8f 3e f3 1e 8a bd 93 65 af bd 6a a2 df 3d
       0.28085047 -0.06744184 -0.085642956 0.1091965
000100 01 f8 82 be 16 49 5b 3e 3a 1f a4 be 52 00 65 3e
       -0.25579837 0.21414599 -0.32055074 0.22363403
000110 7e 50 4e be 60 37 97 be 08 24 8d 3e 76 94 6e 3d
       -0.20147893 -0.29534435 0.27566552 0.058247052
000120 ba 7b 1f be c9 80 18 be 75 d9 04 3e 83 0e 1f 3e
       -0.15574542 -0.14892878 0.12973578 0.1553288
000130 13 2a 4c 3c 66 20 12 be 79 e5 5f be 48 a8 07 3e
       0.012461203 -0.14270172 -0.2186488 0.13247788
000140 1a 10 fc 3d e8 10 80 3e fa 41 b2 3e 85 21 2e be
       0.12307759 0.25012898 0.3481596 -0.17004974
000150 cd 0f 30 bd 6c 01 7c 3e c2 50 30 3d b2 3a 3f be
       -0.04298382 0.24609917 0.043045767 -0.18674734
000160 e9 ca 58 3e a0 55 83 3e 83 7a 23 3c 6b 82 7a 3e
       0.21171154 0.25651264 0.00997794 0.24463813
000170 99 85 ae 3e e1 77 33 3e cc b0 a7 3e 63 51 45 be
       0.34086302 0.17526199 0.32752073 -0.19269328
000180 4b c0 e6 bd 29 d8 4c bd 52 f9 01 3e 7e 11 03 3e
       -0.11267146 -0.050010834 0.12692764 0.12799641
000190 01 1f 14 3f 2a 5a 0d 3e 02 87 2a bf d0 53 d2 be
       0.5785981 0.13803926 -0.66612256 -0.4107957
0001a0 8a 1b 19 3e 75 a7 40 3e 02 93 3b be 52 bf 5e bf
       0.14951912 0.1881388 -0.18317798 -0.8701068
0001b0 98 e5 64 3e 19 ba 5e 3e 52 19 23 be 2b 6c 0f bf
       0.22353208 0.21750678 -0.15927628 -0.56024426
0001c0 d4 91 b1 3e b3 b0 10 bd c1 d6 cd 3d 84 0b 5b be
       0.3468157 -0.035324764 0.10050727 -0.21391112
0001d0 ee d4 1a be 9d 71 38 3e 09 ec a3 be 31 24 2d be
       -0.15120289 0.1801209 -0.32016018 -0.16908337
0001e0 87 f1 1f bf 02 18 15 bc 99 84 37 bf 21 0b d0 bd
       -0.62477916 -0.009099962 -0.716867 -0.10158373
0001f0 b4 57 46 bf 52 22 58 bb 1a 03 0f be 5b c4 af 3e
       -0.77477574 -0.003297944 -0.13966027 0.34329495
000200 74 9e 7d 3e e4 ea f0 bc 41 bf 9a 3f cd 4c 0f 3d
       0.24767476 -0.02940888 1.2089616 0.034985352
000210 91 9d df bd a5 84 c2 be 41 cd 13 bf 3f b4 01 bf
       -0.10918725 -0.37991825 -0.5773507 -0.5066566
000220 fe 20 ef 3d 3b 74 3a be 65 e4 c7 3c 16 3a 5d 3f
       0.11676215 -0.18208401 0.0244009 0.8641676
000230 11 61 db bd 91 3f bc bd d6 4c 5a 3d 83 52 2c 3f
       -0.10711873 -0.09191812 0.053295933 0.673134
000240 15 e3 1e be 3b 30 0f 3c c1 af c4 3c 69 58 b0 3c
       -0.15516312 0.008739526 0.024009587 0.021526532
000250 2e c3 84 3e e4 4a bd be c7 21 a7 3e 88 97 d5 39
       0.2593016 -0.369712 0.32642958 0.00040739425
000260 b7 1c 0d be e4 96 5f be b2 f7 2a 3d d8 a4 1b be
       -0.13780485 -0.21834904 0.041740127 -0.15199602
000270 69 4c 0c 3d 85 75 b3 bc 9c a2 0b 3e 6f 6b 10 3e
       0.034252558 -0.021906624 0.1363625 0.14103483
000280 15 b1 9d be b5 37 a0 be 21 a5 ca 3e 1c 17 49 3e
       -0.30799165 -0.312925 0.39579108 0.19637722
000290 3a c0 10 3e 75 61 d6 3d 98 95 08 bd 0b 1d 92 bd
       0.14135829 0.10467807 -0.03334579 -0.07134446
0002a0 35 ea ce bd a8 b6 54 3d 54 5b 25 3d 62 a6 48 3e
       -0.10103265 0.051932007 0.0403703 0.1959472
0002b0 d1 e7 90 be 2a fd bc 3e 9b db 29 3e 1a b3 fa bc
       -0.28301862 0.369119 0.16587679 -0.03060298
0002c0 21 8f b4 3d 4c 57 07 3e bc 46 ab 3d 83 e0 a7 be
       0.08816362 0.13216895 0.08363101 -0.32788476
0002d0 c7 79 f5 bd 65 4f d7 bd fb 84 25 bd 35 12 dd bc
       -0.11986118 -0.1051319 -0.040410023 -0.02698622
0002e0 c8 ee 51 3e a6 7b 30 be 14 54 2d be 6d 37 bf bd
       0.20501244 -0.17234668 -0.16926605 -0.093367435
0002f0 8e ff 11 be 00 00 80 3e 76 df 94 3e 41 3f ad bd
       -0.14257643 0.25 0.29076737 -0.0845933
000300 07 92 97 bd 43 ed 15 3e 70 18 b1 be e5 e2 a1 3e
       -0.074008994 0.1464129 -0.34588957 0.3161842
000310 e6 6c e3 bd 1d 07 32 3b ee a3 2e 3c 88 2e 8e bd
       -0.11104755 0.0027164884 0.010659201 -0.06942469
000320 96 93 fa bd 1d 07 47 3e a3 be a3 bd e6 94 29 3e
       -0.12235181 0.19436307 -0.079953454 0.16560706
000330 8e c7 fa bd 24 47 4d 3d 5f 40 b7 3d 83 81 05 be
       -0.12245093 0.050116673 0.08947825 -0.13037686
000340 49 46 a3 be 0f 45 68 be 64 34 92 bd d7 e3 1d 3e
       -0.3188956 -0.22682594 -0.07138899 0.15418945
000350 70 3c b0 bd f5 10 23 3d 4e 3b d2 bd 90 4c 91 be
       -0.086052775 0.039811093 -0.10265218 -0.28378725
000360 a6 0a ff bd 9a 18 87 bd 8c 5d e5 bd b9 49 0a be
       -0.12453203 -0.06596489 -0.11199483 -0.13504685
000370 61 a0 a3 3d 9e d6 46 3e d5 42 cf 3d 4e d9 5e bd
       0.07989574 0.19417807 0.10120169 -0.054406457
000380 86 93 89 3d c0 f8 d2 bd 03 2d 4c be 77 1a 04 bd
       0.06717591 -0.103013515 -0.19939046 -0.0322518
000390 ee 9c b0 bc a5 01 87 3b 75 fc 29 be 23 5b 58 3d
       -0.021559205 0.004120069 -0.16600211 0.05282129
0003a0 c7 a5 69 3d 92 65 22 3e f9 9e 79 3d 46 c3 10 3e
       0.057042863 0.15859058 0.060942624 0.14136991
0003b0 91 a3 8e 3e 4d 1b 09 3e f3 9b 90 be 7c b0 53 be
       0.27859166 0.1338932 -0.2824398 -0.20672792
0003c0 ac 36 5a 3d 04 37 d6 3d a6 9d c6 3d 76 3f 29 3d
       0.053274795 0.10459712 0.09698038 0.041320287
0003d0 a9 2a 2d 3e b8 59 30 3d 98 1b 75 3e 1c 35 53 be
       0.16910805 0.043054312 0.23936307 -0.20625728
0003e0 cd 21 69 3e 98 7e 2c 3d 3b a4 a4 3c 9f 88 84 be
       0.227668 0.042112917 0.020097842 -0.25885484
0003f0 af 49 86 3d c0 aa e2 bd 89 f0 3d bc fc d5 03 bd
       0.06557023 -0.11067724 -0.011592993 -0.032186493

functional_1/dense_1_2/BiasAdd/ReadVariableOp:0 f4 [50]
000000 77 34 d2 3d 71 b0 76 bd 29 6a e2 3c ca a4 cc bd
       0.10263913 -0.06022686 0.027638512 -0.099923685
000010 5d d3 9a 3d 62 cb a4 bd 8a 4d e1 bd ef cd 2e bc
       0.075598456 -0.08046605 -0.110011175 -0.010669216
000020 a3 3c ee 3d 1c db ef 3d d2 d5 a6 bd 3a cd ba 3c
       0.11632659 0.11711714 -0.08146252 0.022802938
000030 c9 fc 0d 3e 33 c6 a7 3b 75 42 bc 3d de 97 28 bd
       0.13865961 0.0051200627 0.09192363 -0.041160457
000040 62 d6 a7 3d 95 34 b0 bd 82 8e 35 3e c8 b2 b0 3d
       0.08195187 -0.08603779 0.17730144 0.0862785
000050 87 8a 81 bd d0 53 91 3d c0 47 8b bc 8c a4 88 3d
       -0.0632525 0.07096064 -0.017001987 0.0667201
000060 12 a8 87 bc 8b 44 0a 3b 92 45 bf bd 64 10 b3 bd
       -0.016559634 0.0021097984 -0.09339441 -0.08743361
000070 04 47 b6 3b c3 08 d3 bd c0 ed 88 bd a7 a9 be bd
       0.005562665 -0.103044055 -0.06685972 -0.09309702
000080 af c8 a2 bd 94 79 2f bd bf ee 2e 3d 01 18 dd bd
       -0.079484336 -0.042840555 0.042708155 -0.10795594
000090 51 56 ed bd 2a 7f 7c bd 66 31 81 bd aa 9a 70 3d
       -0.11588729 -0.06164471 -0.0630825 0.05874125
0000a0 89 62 f9 3d d4 6f b4 bc c1 61 d5 bd e0 ca 55 3c
       0.12176997 -0.02202598 -0.10419036 0.013048857
0000b0 f8 2f 97 bd f1 7e a6 3d 92 22 c8 bd b5 ee ca 3c
       -0.07382196 0.08129681 -0.09772219 0.024772028
0000c0 ec cd db 3c 9b 83 04 3e
       0.02683159 0.12940829

functional_1/dense_1/Cast/ReadVariableOp:0 f4 [800, 50]
000000 0f 2b 60 be 89 cd c0 bd 86 79 83 be 1d f8 97 bb
       -0.21891426 -0.09414203 -0.25678653 -0.0046377317
000010 2f aa f7 bd dd 10 83 bd e9 88 0a be a4 73 c6 bd
       -0.12093007 -0.06399701 -0.1352879 -0.096900254
000020 76 8a e9 3c e1 f8 a2 3d ca 1b f0 bc 58 2a 3b 3e
       0.028508406 0.07957626 -0.029310126 0.18277872
000030 22 50 e8 bd 05 0a c2 3d 9a 47 1b bd 9c e6 c0 bb
       -0.11343409 0.09474567 -0.03791008 -0.005886866
000040 6e 9a 35 3d 66 e9 f1 bd d6 84 05 bd 85 d5 0f be
       0.04433673 -0.11812095 -0.032597385 -0.14046295
000050 8b 26 d5 3d 38 64 b6 3d 5b 35 0e be 3f 49 ce 3d
       0.10407742 0.08905834 -0.13887541 0.10072564
000060 a6 c0 09 3e ff 60 04 3d f3 18 0b bd 8e aa 01 be
       0.13452396 0.032319065 -0.03395934 -0.12662718
000070 e8 31 8d 3d f7 9c ba bd 9a c2 c0 bd cc 25 0b 3e
       0.068942845 -0.0911197 -0.09412117 0.13588637
000080 22 d5 7a be 08 84 ca bb e3 eb 9b bd 44 7a 1b be
       -0.24495366 -0.00618029 -0.07613351 -0.1518336
000090 8b 18 29 be 32 70 0e be 7b b7 f9 3d f2 9a 17 3e
       -0.16513269 -0.13909987 0.12193199 0.148052
0000a0 84 85 ce bd ec ef 7e 3d ac 6a e3 3d b8 35 b7 3a
       -0.1008406 0.062240526 0.111043304 0.0013977801
0000b0 45 b1 b2 3d 78 d5 e6 3d 8f eb bd bd 40 aa da bb
       0.08725218 0.11271185 -0.09273445 -0.0066731274
0000c0 ca e1 4c 3e 95 89 7d 3d a5 5f a4 bd 06 32 da bd
       0.20008007 0.061898787 -0.08026055 -0.106540725
0000d0 aa f2 8a bd 3c 9c 8a 3d 81 98 a9 3b 18 16 c6 bd
       -0.06784566 0.067680806 0.0051756506 -0.09672183
0000e0 4c 3c 79 3b a4 e2 96 bd a6 85 1e 3c 8a ac bc 3d
       0.0038030325 -0.07367447 0.009675419 0.09212597
0000f0 0e d7 d0 bd 51 73 c0 3c c8 86 8e bd f8 01 de 3d
       -0.101972684 0.023492487 -0.06959301 0.10840219
000100 ef 3b 8f bc 71 d1 d0 3d da 04 fe bd ef 48 a8 bd
       -0.017484633 0.10196198 -0.12403269 -0.08217036
000110 43 c8 8d bc 77 3f d9 3c db be d2 bc 72 fc 09 3e
       -0.017307406 0.02651952 -0.025725773 0.13475206
000120 52 3d f6 bd a5 fd 47 bc 89 9b 90 3c ac 1b ec 3d
       -0.12023415 -0.01220647 0.01765229 0.115287155
000130 5a 74 fc bd 22 04 a5 bc 50 3d 3f 3d 87 c2 ba 3a
       -0.1232688 -0.020143572 0.04668933 0.0014248647
000140 0d 34 9c bd 01 b9 cf 3b 69 e4 53 3c a4 a8 9f bc
       -0.076271154 0.006339193 0.012932875 -0.019489594
000150 e4 47 00 bd 86 16 8c bd 77 87 19 bc 4e 52 30 3c
       -0.03131856 -0.068402335 -0.009370676 0.0107618105
000160 70 f8 cb 3c d8 d2 09 3e ac c8 c1 bd 4a d1 2f bc
       0.024898738 0.13459337 -0.09462103 -0.010731051
000170 9f f7 f2 3d ce 2b 1a bc ea 73 6a 3d 96 18 56 3c
       0.11863636 -0.009409858 0.05723945 0.013067385
000180 6c 55 cf 3d 8e 7f b7 3d fa da 09 3e 60 14 03 bc
       0.10123715 0.08959876 0.13462439 -0.008000463
000190 ef 22 99 bd 63 b3 c8 bd de 53 d7 3d 05 b2 89 3c
       -0.07477366 -0.0979984 0.10514043 0.01680852
0001a0 fc 00 b4 3c 7f b6 25 bd e0 26 e3 bd 95 c9 ad bd
       0.021973126 -0.040457245 -0.11091399 -0.08485714
0001b0 5c 19 05 3e c2 2c cd 3c 93 03 fb bc 81 d4 54 3e
       0.12997955 0.025045756 -0.030641353 0.20784189
0001c0 90 a6 21 bd 19 b6 16 3d d4 54 18 be b9 ea 4a be
       -0.039465487 0.036794756 -0.1487611 -0.19816102
0001d0 55 b4 52 3e 10 5a 53 bd 80 93 9f 3b 57 fd 50 bd
       0.20576604 -0.051599562 0.0048698783 -0.051022854
0001e0 0c 66 dd 3d 58 5c ff 3d 5f b3 d6 bc da 58 bd bc
       0.108104795 0.12468785 -0.026208578 -0.023113657
0001f0 e2 c7 71 3d 38 f9 44 3d 36 aa 19 be f3 f3 19 bd
       0.059028514 0.048089236 -0.15006337 -0.037586164
000200 78 97 c2 3e e6 23 a4 bd 14 9f 81 3d e3 c1 bb be
       0.38006186 -0.080146596 0.0632917 -0.3667136
000210 36 dd 58 3e 4c 4c a7 3d 9c d8 41 bc 49 2e d8 bd
       0.21178135 0.08168849 -0.011831429 -0.10555703
000220 cb 11 02 bc 68 24 f4 3b ee ad 86 3d b6 21 6b bc
       -0.0079388125 0.007450629 0.06576143 -0.014351299
000230 66 7b 1c bd 97 43 06 3e f4 c4 61 3e 2b 11 04 3e
       -0.03820362 0.13111721 0.22047788 0.12897174
000240 df 88 4d be 84 bd e4 3d 52 a8 56 3e 27 ac 6c 3d
       -0.20071743 0.1116896 0.20962647 0.057781365
000250 01 b2 fc 3d a7 8a 85 3d a2 19 59 3d 55 99 9e bd
       0.12338639 0.065205865 0.05300296 -0.077440895
000260 d2 0f 64 bd 50 60 98 3d 13 08 15 be 25 5e 0b bd
       -0.05567915 0.07440245 -0.14553861 -0.03402533
000270 16 f8 16 be 6a 55 1f be 00 a6 75 3d 2f 71 e6 3d
       -0.14743075 -0.15559927 0.059972763 0.11252057
000280 bc 0c 94 bd 84 cd 56 3d 1b 14 8b 3c 10 de b2 bd
       -0.072289914 0.05244209 0.01697736 -0.08733761
000290 0e 23 5c bd fb 07 12 be 09 24 8f bd 36 7e 94 bd
       -0.05374437 -0.14260857 -0.06989295 -0.07250635
0002a0 fd c8 f5 39 c7 92 ce bd 88 3c 64 3d 86 8c d0 3c
       0.0004687979 -0.10086589 0.05572179 0.025457632
0002b0 6d 93 9e bd ac 1a 80 3d 91 93 25 bc 13 9e 18 3e
       -0.07742963 0.06255087 -0.010105983 0.1490405
0002c0 9f cd 43 3d 4f a5 87 bd 6a bf 2c 3e 32 2a fa ba
       0.047803517 -0.06623327 0.16869894 -0.0019086062
0002d0 d5 31 e4 bd 9e fe 9f bd 56 cd f7 3d e2 86 72 3d
       -0.11142317 -0.07812236 0.120997116 0.059210666
0002e0 e5 2a 1c bd 9c 0d 64 be ba aa 5d bc 8e 12 74 bb
       -0.038126845 -0.22270817 -0.013529474 -0.0037242505
0002f0 08 5f d1 bc 38 f7 f8 bc 6e 6f df bc d7 ca de 3d
       -0.02555801 -0.03039132 -0.027274814 0.108785324
000300 91 b1 54 3d 32 19 c4 bd 47 61 6d bd a6 cd f6 3c
       0.051927153 -0.09575118 -0.0579541 0.030127358
000310 65 e6 c9 bd c8 c8 68 3d 65 f1 46 3d 5a 2c 26 be
       -0.098583974 0.056832105 0.048570056 -0.16227856
000320 b6 cb af be cc 3d 8a be 8b c0 b8 3e 99 9e 4b 3d
       -0.34335107 -0.27000272 0.360844 0.049711797
000330 13 13 2e bd 79 e1 7e 3e 22 46 48 3d b1 54 01 be
       -0.04249866 0.24890698 0.04889501 -0.12629963
000340 0b 87 10 3d 72 ab 82 3d 12 6f 88 bc 5c de 7f be
       0.035285037 0.06380357 -0.016654525 -0.24987167
000350 87 d6 a7 be 3f 5b 2f 3e 3c 66 74 be 69 37 27 3f
       -0.3278086 0.17124651 -0.23867124 0.65318924
000360 14 0b 51 be 4b 5f d6 bc 36 7a 94 3d 36 8b 17 3e
       -0.20414382 -0.026168486 0.072498724 0.14799199
000370 ce e3 15 bf ae cb a8 3d 41 96 04 3c 86 62 ec 3d
       -0.5855073 0.08241974 0.008092464 0.11542229
000380 3e a0 16 be b8 38 da 3c 81 59 32 3e 58 b7 f6 3e
       -0.14709565 0.026638374 0.17416956 0.48186755
000390 8d 5f c3 be cc e9 b2 be b9 59 2a be 57 ef 15 bd
       -0.38158837 -0.34943998 -0.16635789 -0.036605205
0003a0 e6 1e 86 bd 83 be 06 3f 74 8a 15 be a8 ad 8a bd
       -0.06548862 0.5263445 -0.14603597 -0.067714036
0003b0 4d 50 08 bd 17 4f 43 bd 1c 6d 2f 3d ad 4d ec 3e
       -0.033279706 -0.047682848 0.042828664 0.46153012
0003c0 7e 1e 9e bd 21 cc fb 3e 08 53 ba 3e bb 93 fd 3e
       -0.0772066 0.49179175 0.36391473 0.49526772
0003d0 c8 2a c5 be 80 75 f1 3c cd 11 64 bd 69 30 0d bd
       -0.38509202 0.029474974 -0.05568104 -0.034469996
0003e0 1c bf c0 bd 2c 2e 3f 3e fd 36 ab bc 81 40 53 3c
       -0.09411451 0.18669957 -0.020900244 0.012893797
0003f0 10 d2 26 3c ed 85 7c bc 64 3e c0 bd d6 f4 9c bd
       0.010181919 -0.01541279 -0.093869 -0.07663886

functional_1/dense_1/BiasAdd/ReadVariableOp:0 f4 [50]
000000 bc 94 30 3e e9 cf c0 bd cf 41 1f 3d c3 3a a9 3d
       0.17244238 -0.09414656 0.03888112 0.08263161
000010 08 a6 92 bd 40 03 10 3d b0 7c a5 bd ea 02 80 bd
       -0.07160574 0.03515935 -0.08080423 -0.06250556
000020 40 12 89 3d bf 50 90 3d e3 c1 99 bd 87 b1 12 be
       0.06692934 0.07046651 -0.07507684 -0.14325534
000030 74 a1 b4 bd 75 46 d2 3d c6 85 9d bd 3f 0f 9e 3d
       -0.08819857 0.10267345 -0.07691531 0.07717752
000040 a4 35 8c bb a5 dc 80 bd cb 62 51 bd 7d 61 a3 bd
       -0.0042788554 -0.062920846 -0.051119607 -0.07977579
000050 fb f5 f4 3d e9 e1 a3 3d 84 f2 b1 bd 24 80 67 3d
       0.119609796 0.08002073 -0.08688834 0.05651869
000060 bd c6 c9 3c 57 8f a8 3d 77 c3 4e bd 72 fc d7 bd
       0.024630899 0.08230465 -0.05047938 -0.10546197
000070 ba 71 c0 3c c5 a7 ac bd 9d f4 c7 bd fe 0d 92 bb
       0.023491729 -0.08430437 -0.09763453 -0.0044572344
000080 bc 78 93 3e 9e 43 22 3b 99 91 65 be 4e 04 bb 3d
       0.2880305 0.0024759541 -0.22418822 0.091316804
000090 a5 93 76 bd 2b 51 a1 bd 03 20 67 3d 53 b4 40 bb
       -0.0601994 -0.0787681 0.056427013 -0.0029404357
0000a0 42 50 a0 bd 86 a7 9d 3d 3a aa 4d be 5e 72 99 3d
       -0.07827808 0.07697968 -0.20084468 0.07492517
0000b0 4c e5 f0 bd da eb 8b 3d 0b 82 96 bd 4d c6 ac 3d
       -0.11762485 0.068320945 -0.073490225 0.0843626
0000c0 ad 94 3f bd 84 d1 56 3d
       -0.046772648 0.052445903

functional_1/conv2d_1_2/convolution/ReadVariableOp:0 f4 [32, 32, 3, 3]
000000 a3 db 26 bc 61 5d 71 bd 19 e0 84 bd 6d 87 ea 3d
       -0.010184201 -0.058926944 -0.06488056 0.11451612
000010 17 0c 8e bc 55 67 db bd af ce c2 b8 0f 99 b4 3c
       -0.01733975 -0.107130684 -9.289139e-05 0.02204564
000020 ea e2 be bc 14 da c9 bc 84 41 13 3d b9 64 bd bd
       -0.02330156 -0.02464012 0.035951152 -0.09247727
000030 34 70 b0 bd f4 d3 80 3a d6 06 00 3c d9 95 7f bd
       -0.08615151 0.0009828792 0.00781413 -0.062398765
000040 1b fa ba 3c 69 21 1a be 32 71 9f bd 73 45 a6 be
       0.022824338 -0.15051807 -0.07785262 -0.3247486
000050 e3 f3 09 be 55 a4 b7 bd 62 d1 86 be 22 20 81 be
       -0.13471942 -0.08966891 -0.2633162 -0.25219828
000060 4d 15 68 bd 8f 34 0f be 44 53 f8 bc 40 ee 74 be
       -0.05666094 -0.13984893 -0.030313142 -0.2391901
000070 31 98 73 be ad 38 87 be d3 c4 af bd 70 54 6b be
       -0.23788525 -0.26410428 -0.08582463 -0.22981429
000080 dc ed 7d be 0a 1e 0d 3b 0d 29 81 be 59 1b 75 be
       -0.24797767 0.0021532797 -0.25226632 -0.23936214
000090 8d f4 a2 3d c6 11 2e bd 0b 69 b0 bd d0 83 e4 3d
       0.079568006 -0.04249742 -0.08613785 0.11157954
0000a0 a7 a9 26 be ca 87 c1 be 3f b0 21 3e 02 5d 28 be
       -0.16275655 -0.3779891 0.15789889 -0.1644173
0000b0 f0 29 00 bd 41 f5 27 3d f6 f8 7c 3d 10 bb f4 3b
       -0.031289995 0.041005377 0.061760865 0.0074685887
0000c0 ad b2 44 bd 6c 7d 13 3e dd c8 94 bd b1 c1 ce 3d
       -0.04802196 0.14403313 -0.07264874 0.100955375
0000d0 98 d4 79 bc 69 1d 41 bd 21 4b 7a be 3b 06 25 be
       -0.01524844 -0.04714719 -0.24442722 -0.16115658
0000e0 e6 f8 69 be bc e1 e9 be e6 93 6b be 8c c3 9f be
       -0.22848853 -0.45680034 -0.23005638 -0.31203878
0000f0 b8 ba 05 bf 6a 62 df be 92 97 88 be 61 b6 ab 3c
       -0.52238035 -0.4362977 -0.2667814 0.020960988
000100 5a fc 1e be 7a 18 76 bd 25 b6 26 be cf 61 3e bd
       -0.15525952 -0.060081936 -0.1628042 -0.046479996
000110 b1 08 c3 bd 26 61 17 be 42 b9 9e 3c eb 4c 0c bd
       -0.09523142 -0.14783153 0.019375447 -0.034253042
000120 b1 ae 49 be 2f b5 a2 be 98 17 4f be a5 12 8b be
       -0.19695546 -0.31778857 -0.20223844 -0.27162662
000130 63 fe a4 be 9f b2 65 be 03 4c 80 be 40 94 8a be
       -0.32225332 -0.2243142 -0.25057992 -0.2706623
000140 47 13 19 be 4e 4c a6 be 6c bb 45 be 0e 16 54 be
       -0.1494876 -0.3248009 -0.19309777 -0.20711538
000150 ad 1d 64 be 39 7b 3b be e1 7f 21 be c4 7a 0d be
       -0.22276945 -0.18308724 -0.15771438 -0.13816363
000160 b3 63 09 be 66 67 21 be 5f 0b be bd f9 a7 9c be
       -0.13416938 -0.157621 -0.092795126 -0.30596903
000170 76 98 08 be b4 13 83 bd 78 21 27 be 4e 78 82 be
       -0.13339409 -0.064002424 -0.16321361 -0.2548241
000180 e6 7b f1 3c a9 0c 14 be f8 d6 91 be f7 70 c0 bd
       0.029478025 -0.14457954 -0.2848432 -0.09396546
000190 f9 e5 5c bd 06 e6 a2 be bd 13 08 3e 78 2d 5f 3d
       -0.053930257 -0.3181612 0.1328878 0.05448672
0001a0 c2 0d 34 b9 28 60 63 bd d8 ce 4f be 66 fd 7a be
       -0.00017171263 -0.055511624 -0.20293748 -0.24510726
0001b0 b9 96 35 bd dd 6f 16 3d 54 1d e6 bd 6c f2 bb bd
       -0.044333193 0.036727775 -0.11236063 -0.09177098
0001c0 50 70 a8 bd a5 82 f3 bd cd 3b ef 3c 87 dd 1b 3d
       -0.08224547 -0.11890153 0.02920332 0.03805306
0001d0 ee d0 db bd 59 83 1a be 34 ba 1f 3d 3e be bf bd
       -0.107332096 -0.15089168 0.038995937 -0.09362458
0001e0 13 47 d9 bc 10 ac 21 3d b1 20 bf bd 47 b0 88 bc
       -0.026523149 0.039470732 -0.09332407 -0.016685618
0001f0 85 aa 3b bd 97 81 d0 3c 62 12 b9 bd ce 18 47 bd
       -0.045816917 0.025452418 -0.09036709 -0.04860764
000200 72 1f a5 bb aa 98 c5 bc b5 cb e0 bb 81 7b 65 3d
       -0.005039149 -0.024120647 -0.0068602213 0.056025986
000210 8b fe bf bd b7 0e 44 3d 57 2c 98 bd 0c 39 85 3c
       -0.09374722 0.047865596 -0.07430332 0.016262554
000220 ef 47 0d be 3c 81 12 bd 10 fe 24 bd ee 06 d3 bd
       -0.13796972 -0.03576778 -0.040281355 -0.10304056
000230 f6 94 ec 3c 61 69 32 bd a7 10 c6 bd e6 14 8c bd
       0.028879624 -0.04355753 -0.09671145 -0.068399236
000240 7f 9f 57 be 00 ca 9f be 94 18 30 be 77 b5 bf be
       -0.21056937 -0.312088 -0.17196876 -0.37443134
000250 23 9d 3b bc 89 ea 4d bc 7b 6a 49 be 2c 29 7a be
       -0.0114510385 -0.012568125 -0.19669525 -0.24429768
000260 16 5f 81 be d4 be 1b be 9b 95 c9 bd 22 62 8b bc
       -0.25267857 -0.15209514 -0.09842988 -0.017014567
000270 a2 a2 60 bd ba 08 c3 bd ea 71 6d 3c 80 a6 09 be
       -0.0548426 -0.09523149 0.014492491 -0.13442421
000280 09 63 0f 3d b7 c6 8d bd f8 65 e4 3d 29 92 5f bc
       0.035006557 -0.069226675 0.111522615 -0.013645687
000290 d1 fa b0 bd 3a 85 eb 3d 3b e3 30 be a4 f0 77 be
       -0.086415894 0.1150002 -0.17274182 -0.24212891
0002a0 fb 13 ec 3d 2f 45 42 be 50 54 36 be 60 75 14 3d
       0.115272485 -0.18971704 -0.178056 0.03624475
0002b0 c8 47 06 3d f3 0b 13 bb ab bf 13 be 60 37 32 bd
       0.0327833 -0.0022437542 -0.14428584 -0.04350984
0002c0 89 3c 02 3c 87 61 94 3c ef c9 43 bd 85 61 8d 3c
       0.007949003 0.01811291 -0.0478 0.017258415
0002d0 22 52 61 be 46 ea ba be 9a 56 85 be 04 59 89 be
       -0.22003987 -0.3650686 -0.26042634 -0.26825726
0002e0 87 26 5a be fb 2a 77 be 6f 1b 48 be 8a 42 83 be
       -0.2130376 -0.2413749 -0.19541715 -0.25636703
0002f0 05 57 ce bd 8e 2a e3 bd 1c e4 a1 bd 19 47 9d bb
       -0.100751914 -0.11092101 -0.079048365 -0.0047997353
000300 53 dd 28 bd 30 fb b9 bd 81 d0 d8 3d be 84 1d be
       -0.041226696 -0.09081113 0.10586644 -0.15382668
000310 3b 51 36 3d 54 c0 15 3c 64 03 49 bd f9 c0 77 bd
       0.04451106 0.009140093 -0.0490755 -0.060486767
000320 00 31 83 bd db 60 e3 bc 12 38 24 be 4a 23 3c bd
       -0.064058304 -0.027756145 -0.16037014 -0.04593209
000330 35 25 fb 3c 3c 51 b5 3c 5f 75 ed 3c 3f 4a 93 bd
       0.03065739 0.022133462 0.028986631 -0.07191896
000340 83 a5 75 bd 39 19 ab bd 32 ba 03 be 96 1d 89 ba
       -0.059972297 -0.0835442 -0.12863997 -0.0010461088
000350 e1 e6 14 bd 69 37 cb bd f1 ff 3a 3d da b3 5e 3c
       -0.036352996 -0.09922678 0.04565424 0.013592685
000360 95 4e 98 be a8 42 7a be 38 f3 73 be 6d a4 9d be
       -0.29747453 -0.2443949 -0.2382325 -0.3078951
000370 5a a6 a0 be 1e ed 63 be 83 d7 cc be b3 92 f2 bd
       -0.31376916 -0.22258422 -0.40008172 -0.11844387
000380 a0 87 e5 bd 8e 89 50 3c 32 43 f4 bd 97 07 fd 3c
       -0.11207509 0.012728108 -0.11926879 0.030887408
000390 3b 14 55 bd ce 43 20 3d 74 41 f2 bd 16 99 2c 3d
       -0.052021246 0.039127164 -0.118288904 0.04213818
0003a0 f2 02 db bd cc e4 95 bd b1 ce aa bd 09 65 05 be
       -0.10693921 -0.0731903 -0.083402045 -0.13026823
0003b0 ea 6e 45 bd e1 e9 c1 bd 2b 01 95 bc 47 ce 17 be
       -0.04820148 -0.09468437 -0.018189033 -0.14824782
0003c0 6f e9 9a bd e5 af 51 bd 0e 97 92 bd 11 20 ea bd
       -0.07564055 -0.051193137 -0.07157718 -0.114318974
0003d0 ef 8e cf bd 66 89 43 bd 85 81 59 bd cb 5c c4 bd
       -0.10134684 -0.047738455 -0.053102035 -0.09588011
0003e0 4d 79 13 3c 6d 0c 44 bd 96 77 c5 bb 54 22 04 3d
       0.009001088 -0.047863413 -0.0060262186 0.0322593
0003f0 34 41 78 3c 8c ed f0 bd b1 b0 fc bd d6 6f 95 3b
       0.015152264 -0.117640585 -0.12338389 0.004560451

functional_1/conv2d_1_2/Squeeze:0 f4 [32]
000000 16 6e 8e be 7d ea 6e bd a1 e2 27 be c9 8e 58 be
       -0.27818364 -0.058329094 -0.16395046 -0.21148218
000010 33 a2 83 3d 01 f0 75 bd 04 f8 74 be 91 0f 8a bd
       0.064274214 -0.06004334 -0.23922735 -0.0674125
000020 f7 2d 72 bd 52 b3 74 bd b8 e2 46 bd 81 47 7c bd
       -0.059125867 -0.059741326 -0.04855606 -0.06159163
000030 80 1b 20 be 8d 8d 85 bd ab f0 94 be de 05 0f be
       -0.1563549 -0.06521139 -0.29089865 -0.13967082
000040 99 b1 94 be d9 88 23 be a8 bb 52 be 0b 37 cf bd
       -0.29041746 -0.15970172 -0.20579398 -0.101179205
000050 32 b2 4d be 35 4b fb bd 41 7c 39 be 2b 71 78 bd
       -0.20087507 -0.12270204 -0.18113805 -0.0606548
000060 18 21 56 be d1 f3 04 bf e1 e4 75 bd 39 76 d1 bd
       -0.20911062 -0.51934534 -0.06003273 -0.10227627
000070 41 40 6b bd f7 29 d6 3c 04 bc 71 be c0 cf 8b bd
       -0.057434324 0.026143057 -0.23606879 -0.068267345

functional_1/conv2d_1/convolution/ReadVariableOp:0 f4 [32, 1, 3, 3]
000000 26 4b cc 3c ec 56 50 be 93 66 68 be b1 85 8f 3b
       0.024938177 -0.20345658 -0.22695379 0.004379951
000010 aa a3 2e be 19 ab cb bd f5 9b b2 3c 05 da 7a bd
       -0.1705462 -0.09944744 0.021802882 -0.061243076
000020 2c 49 17 be 70 db 93 be fa d4 12 be 76 7a 25 be
       -0.14774007 -0.28878355 -0.14339057 -0.16159996
000030 7a ae be bd c8 91 50 bd 2f 1c fb bd bf 98 da bd
       -0.093106225 -0.050920278 -0.12261235 -0.10673665
000040 34 79 66 3d c6 66 3b be 62 85 ee be 9c a0 8b bf
       0.056267932 -0.18300924 -0.46586138 -1.0908389
000050 ed e2 5d bf 1c b1 7b 3e 46 ab e9 3c ec ec 06 bc
       -0.86674386 0.2457928 0.028524052 -0.0082351975
000060 53 41 cf 3e 02 d0 e8 3e ac 9a e1 3d 12 11 72 3e
       0.40479526 0.45471197 0.110158294 0.23639324
000070 87 18 af 3e b1 38 a7 3e 6c 54 33 3e 9f cd c7 3e
       0.341984 0.3266044 0.17512673 0.39024064
000080 5f fc 19 3e 43 f4 f7 be 62 2e 28 bf 93 56 67 bf
       0.15037678 -0.48428544 -0.65695775 -0.90366477
000090 54 cd ae bd 51 94 1f bf df 3b 7f bf 05 85 57 3d
       -0.08535257 -0.6233569 -0.9970073 0.05261709
0000a0 41 e8 57 be 39 15 9d be 4d 62 02 3f 97 77 cb 3e
       -0.21084692 -0.30680254 0.50931245 0.39739677
0000b0 20 85 f5 3d 5a bc 24 be c2 5a 9c be 89 c6 39 3c
       0.11988282 -0.16087475 -0.30537993 0.011338838
0000c0 10 4e d7 3d 13 aa 80 bd f4 b6 a5 bd 8f 87 03 bd
       0.10512936 -0.06282439 -0.08091536 -0.0321117
0000d0 cd 32 f1 bd 69 03 90 3c 99 27 0d 3e 92 44 c6 3e
       -0.117772676 0.017579751 0.13784637 0.3872419
0000e0 61 e9 11 3c c3 84 b5 3e da ee a8 3e 52 b5 1e bd
       0.0089057395 0.35452852 0.3299473 -0.03874714
0000f0 31 c6 47 3d 1e b2 52 bd 05 3a a6 be 60 5f 33 3e
       0.048772994 -0.051439397 -0.3246614 0.17516851
000100 30 af 36 3d 6b 09 a4 bd 03 e2 37 be 07 93 2b 3e
       0.044600666 -0.08009609 -0.1795731 0.16755305
000110 19 69 a7 bd 47 a8 af be 89 b7 8e bd 1c 8f 3b 3d
       -0.08174343 -0.34308073 -0.069686 0.045790777
000120 9f b1 0c be 4c 95 8e 3d 2b 76 ed 3e 1d 05 08 bd
       -0.13739632 0.0696207 0.46379218 -0.033208
000130 58 0f 91 3e 11 b8 1d 3f 18 38 dd be ff bd eb 3d
       0.2833202 0.6160899 -0.4320686 0.11510848
000140 e2 03 4f 3e 74 f6 e4 3d 08 08 09 be 6d e5 69 bd
       0.20216325 0.1117982 -0.1338197 -0.057103563
000150 91 35 8b 3d 20 29 b5 3d fc c6 68 3e 0e 14 9b 3d
       0.06797326 0.088457346 0.22732157 0.075721845
000160 2b 23 0e 3e c0 69 a7 be 08 8f e3 3e 29 c8 45 3e
       0.13880603 -0.32697868 0.44445062 0.19314636
000170 26 b6 87 be e2 16 cf 3e 2e 6e 79 3d 69 03 0b bf
       -0.26506156 0.40447146 0.06089609 -0.5430208
000180 8e 27 91 3e f0 a8 a2 3e 51 40 8a bd 64 1a 3a 3e
       0.2835049 0.31769514 -0.06750549 0.1817413
000190 2a 84 29 3f 7c d3 09 3f f7 19 2e be cf 1c 13 3e
       0.6621729 0.53838325 -0.17002092 0.14366458
0001a0 8a ee e4 bd 6c 2f 80 bf fb ee 02 bf 33 3a 70 bf
       -0.1117831 -1.0014472 -0.51145905 -0.93838805
0001b0 1d 10 21 3c 83 55 07 be 20 8a 77 3d 27 51 1d be
       0.009830502 -0.13216214 0.06043446 -0.15362988
0001c0 b5 28 4e be f9 9e 54 bd 32 8a d5 bd 58 21 1c bd
       -0.20132716 -0.05190942 -0.10426749 -0.038117737
0001d0 0f 3a 3a be 4d 2a 0a bd 92 77 6b 3d 1b de 2e be
       -0.1818621 -0.033731747 0.057487078 -0.17076914
0001e0 a2 06 c9 bc 13 5e 3b 3d 23 3e 11 be cb 23 d2 3b
       -0.024539296 0.045744013 -0.1418386 0.0064129583
0001f0 6d 57 c6 bd 29 be 70 bd ed a9 39 3e f9 e5 e6 bd
       -0.09684644 -0.0587751 0.18131228 -0.112743326
000200 fe 02 89 be 4f 3e af 3c 96 bb aa 3d 03 f9 55 be
       -0.26760095 0.021392016 0.083365604 -0.20895772
000210 51 a5 df bd 5b 0b b9 3c d0 62 dd 3c d3 71 63 bd
       -0.109202035 0.022588423 0.027024657 -0.055528473
000220 eb 41 a0 bd 78 7b e3 3c ac 2f 6e bd 40 82 af 3c
       -0.07825073 0.027768835 -0.058150932 0.021424413
000230 cb 5c 01 3c 63 34 96 be d8 f3 8f be a4 ef b5 bd
       0.007895659 -0.29336843 -0.28115726 -0.088835984
000240 8f df 3c be e2 48 0e 3e c5 2d e9 3e e6 70 55 be
       -0.18444656 0.1389499 0.45542732 -0.20843849
000250 d9 4b 2d 3e b6 62 b2 3e c3 95 ab be 53 0d db be
       0.16923465 0.34840935 -0.33512697 -0.42783603
000260 51 d7 dd bd 77 f5 d3 bd 3b ab e1 3d da bb 3c bd
       -0.10832084 -0.10349553 0.11018988 -0.046077587
000270 30 0f e0 b9 a6 d1 f2 bd 49 04 85 3d 8f d8 7f be
       -0.00042735925 -0.118563935 0.06494958 -0.24984954
000280 ad 91 ec bd 9b 85 b6 bd 5d a0 f6 3e bd 55 17 be
       -0.11551223 -0.08912202 0.48169222 -0.147788
000290 29 94 0d bf 22 75 dc 3e b2 17 88 be e8 08 53 bf
       -0.553042 0.43058115 -0.26580578 -0.82435465
0002a0 8f 10 fc 3e 4b c8 53 3d 2c 98 73 3c 90 d7 3e 3d
       0.49231383 0.051704686 0.014867824 0.046592295
0002b0 6c b3 ca bc 56 aa b0 3b 84 b6 ea bd 16 fa 8d bc
       -0.024743758 0.0053913994 -0.11460593 -0.017331164
0002c0 de e9 11 be 3e a3 7c 3b d3 85 d3 bd 4e bc 52 3d
       -0.1424937 0.0038549448 -0.10328259 0.051449113
0002d0 b3 3b d1 bd 4c cc eb be d1 c0 62 bd d7 46 27 be
       -0.10216465 -0.46054304 -0.055359665 -0.16335617
0002e0 06 f8 e0 3d 2a 6b b0 3e c0 c7 06 3f da 49 db 3e
       0.10984807 0.3445676 0.52648544 0.42829782
0002f0 39 fd 7e 3d 50 24 a6 bc 17 70 d3 bc 62 9a e2 bd
       0.06225321 -0.020280987 -0.025810285 -0.110646024
000300 52 e8 84 3c 96 a3 cf 3d 4f 0d 0c be 3f 3f 91 bd
       0.01622406 0.101386234 -0.13676952 -0.07092141
000310 8e 84 20 3e d6 77 15 bd 4b 46 16 be de 18 ec bd
       0.15675566 -0.036491238 -0.14675252 -0.115281805
000320 6e 60 42 3d 24 3e 12 be ea 3a 0e be 52 e2 1e bd
       0.047455244 -0.14281517 -0.13889661 -0.038790055
000330 0d 73 79 3d 03 1a a7 bd e8 7b 89 ba e3 a5 07 be
       0.060900737 -0.08159258 -0.0010489197 -0.13246875
000340 33 ae 9b 3c 92 28 ab bc d8 21 07 bd b5 fe 86 3d
       0.019003963 -0.020893369 -0.03299126 0.0659155
000350 01 b8 00 bc b9 60 e3 bd 3a b1 88 be 4a 79 00 bd
       -0.00785637 -0.11102433 -0.26697713 -0.03136567
000360 cb af 3c 3d 22 ff 56 bc 3e aa 82 bd 02 94 2e 3e
       0.046066087 -0.013122352 -0.06380127 0.17048648
000370 fe 19 0c 3e 78 fe 8f 3b 78 66 5f be 3f 77 45 be
       0.1368179 0.0043943487 -0.21816432 -0.1928377
000380 fe 5e c4 bd 06 e9 57 3c 3c 8f 17 be 2f c3 0c 3d
       -0.09588431 0.013178116 -0.14800733 0.03436583
000390 e0 48 82 bc d1 86 3f bd 55 7c 81 be e6 86 06 bd
       -0.01590389 -0.04675943 -0.2529017 -0.032843493
0003a0 64 87 ab 3d d4 d2 27 3d fd e9 03 3e b9 e0 90 be
       0.08375433 0.040972546 0.12882228 -0.2829645
0003b0 5f f2 0f be ee 08 01 be c1 ec 8b 3c 90 67 ae bd
       -0.14057301 -0.12601063 0.017080666 -0.08515847
0003c0 86 47 e2 bc 17 46 3e 3e 23 c1 55 3d e6 a2 53 3d
       -0.027621996 0.18581425 0.052186143 0.051669024
0003d0 7f 77 bc bd 33 32 5d be f5 46 57 3d db ba e0 3d
       -0.092024796 -0.2160118 0.052557904 0.1097314
0003e0 ea 3a cf bd 38 b7 af be 30 8a 82 3d d1 48 92 3d
       -0.10118659 -0.34319472 0.063740134 0.07142795
0003f0 b8 fb 95 bd 41 fa b8 3b 1e b9 41 be c2 25 cd bd
       -0.07323402 0.005645067 -0.18918273 -0.10016967

functional_1/conv2d_1/Squeeze:0 f4 [32]
000000 af 99 a5 bd c5 1d d3 bd cd a2 5b be 9c ea 19 be
       -0.080859534 -0.103084125 -0.21448822 -0.15030903
000010 9c 2b 90 be 26 90 27 be ea 31 5d be cc 3b b3 be
       -0.2815827 -0.16363582 -0.21601072 -0.3500656
000020 d8 37 2a be 0f 03 d3 be bf 15 e4 be 01 6b bf bd
       -0.16622865 -0.4121327 -0.4454784 -0.09346581
000030 39 44 a6 bd 28 4d 8e bd 77 e9 a5 be f4 e9 12 be
       -0.08118481 -0.0694831 -0.32404682 -0.14347059
000040 bd bd 34 bd 64 45 5a be aa 4e 62 be 16 ec 9a bd
       -0.04412626 -0.21315533 -0.2210032 -0.07564561
000050 5d a5 ae be 0e 3a 8f be fb a1 7b bd 70 76 11 be
       -0.34110537 -0.2797398 -0.061433773 -0.14205337
000060 72 70 ee be f1 4b 41 be 9f bc 94 be 9a 1f 85 be
       -0.46570164 -0.18876626 -0.29050156 -0.26000673
000070 81 4e 25 be 10 e0 d9 bd 86 75 81 bd 2b d0 7d bd
       -0.16143228 -0.1063844 -0.06321244 -0.061966103
