model.onnx (onnx, 779916 bytes, 120 tensors)

model/encoder_3/self_attention_2/dense_9/Tensordot/ReadVariableOp:0 f4 [64, 21]
00000000: 95e7 06bd 1000 03be be82 3bbe 9bbb 3abd
00000010: a331 683d 6f89 4f3e d364 3d3e a452 783d
00000020: 452b 4c3e f491 c8bd 9756 e03c ffa0 e7bd
00000030: 9045 bb3d 3b9a d13d 3999 bf3c b151 d63d
00000040: 8f63 6cbe 592d 213d a9f2 89bd 197d 9abc
00000050: 2f7d 6cbe 62c9 48be 2d44 763e 7720 c43c
00000060: 91be 003d d2d8 46bd db91 e33c 2b79 7abe
00000070: e5c6 dc3d ea71 e9bd 8a45 533e 10f1 283e
00000080: f3ae 0e3e 607b cc3c ac0d c43b 821c 95bd
00000090: 1f0e 6f3e 85ba e83d ce0f 6e3d a610 233e
000000a0: 245c f2bd efa1 78bc 7e58 c73d e36b 98bc
000000b0: 89b5 4bbe 87ec 153e 200b 133e bc56 a53d
000000c0: 8bfa 453c eab2 a03d 0b78 273e f0ef 24bd
000000d0: e8b5 453e 36c0 583e c0a0 0b3e 861e 03be
000000e0: edfb 933d 1972 a8bd b5a0 48be ef08 f6bd
000000f0: ee6f 1bbe 7036 b3bc 8e91 d53d 0626 1a3e
00000100: 75f1 f33d 947a dcbd e35a d33c 0d73 433e
00000110: f929 853c b532 48be f3bd ecbd b542 773e
00000120: a604 7fbc a743 ccbc 7c8a 5f3d 85c8 a8bd
00000130: 8597 8bbe e04e 7e3e a608 f0bc 86f4 f0bd
00000140: 4ca5 8abc 2e15 71be edf0 0ebe 7218 89be
00000150: 8414 22be bd15 4bbe 7ace 1fbe 65bf 483e
00000160: c647 553e 9588 2cbe 7050 b73d fc7a 6b3e
00000170: 5767 29be b31e 1f3d 45e0 9ebd 4113 0b3d
00000180: 2dd6 91bd bb16 723b 1c88 c73d a1b2 413e
00000190: 5697 723e d8d4 7dbe 80e0 dc3d efd3 0bbd
000001a0: 3c44 27be 3743 a5bd 1e7f 483c d293 263e
000001b0: 678d 143e bc5a 22bc 1777 95bd d902 4a3e
000001c0: 9b28 8bbe 731d d53d 7c9c 05be 6d0a 8bbb
000001d0: de07 9c3d 2563 813e 1bc6 09be 0d46 163e
000001e0: f857 fdbd b360 0cbd fc22 473d 8412 f2bd
000001f0: c7fd 48be 8818 46be db6b 5ebe f8f7 c1bd
00000200: 8468 e63d 4008 0cbe 2e23 cfbd 1d6d 51bd
00000210: 2fe5 04be 36dc f13d 608a 56be f2bc 443e
00000220: 1879 37be abce 62be feac b13d 7d8c f9bd
00000230: dfbf 67be ce9c 3bbe 20b0 823e 27a1 7c3e
00000240: a418 bebc e267 debd 4049 83bc 1b98 ebbd
00000250: 0df8 0a3e 5f27 2d3e e26a 083c 10a0 a7bd
00000260: 1dab 7b3e c2f7 94bd d083 18be f42c dbbc
00000270: 708b 903e c2d5 61be 55c8 0c3e 5280 34be
00000280: 69d4 583e 3106 d83d 0ae5 c6bd 528a 423e
00000290: d933 593e 0848 24be 546b 253e efac af3c
000002a0: 4a3d 593e 517c 1e3e 954f 61be e99c 783e
000002b0: a501 03be b4da b73d 1714 bb3c 7c92 3dbe
000002c0: b791 1e3e 2b66 d83d 7faf 233e 8a01 143e
000002d0: bd75 84bd 3db8 c73d 83f4 13be fddc af3c
000002e0: 90d5 f0bd 344b 40be 6446 20be 778c 0abc
000002f0: c1ea e33d d707 89be e6db 193e b1ca 133e
00000300: 1736 053d 0ad2 5c3e 44e5 f33b 087d 11bd
00000310: 75e8 103e f087 9b3d c70e 4f3e d42d a43d
00000320: c238 6bbc 9db1 dd3d 07e0 65be 3b87 5cbe
00000330: 2514 f1bd 2326 56be 3ca1 51bd a314 2bbe
00000340: c40a 343e 1083 1fbe 5375 51be 1738 1cbe
00000350: 6f0c f7bb 1f0e 8dbd 46fe 06be 99f6 3e3e
00000360: 5e86 523e 7543 293e 9948 473e 610f 2c3e
00000370: 6091 253c e1f4 123e e626 04be bdb2 523e
00000380: dbb2 46be 3ea8 41be eafa 093e e7d1 57be
00000390: 4b80 0dbe bb30 253e c9ff 79be 2a09 753e
000003a0: f690 8c3e ff57 78bc 8927 0b3e 5bc7 753e
000003b0: 09b4 073e cf21 22bd 55e3 5a3e 5c1e 51be
000003c0: 2c45 5e3e 27d2 3ebd 5053 c13d 2413 9fbb
000003d0: c274 44be b12a e83d 5160 b4bd caaf 06bd
000003e0: 332e 1a3e c884 77be 82e3 3ebe d7e7 89be
000003f0: 3bdf 353e c7e9 a7bd 1168 38bd dcfc 17bd
-0.032935698 -0.12792993 -0.18311593 -0.04558907 0.056687962 0.2026727 0.18495493 0.060625687
0.19938381 -0.09793463 0.02738504 -0.113100044 0.09144127 0.10234495 0.023388492 0.104648
-0.23084854 0.039349888 -0.06735737 -0.01885848 -0.23094629 -0.19608071 0.24049444 0.023941262
0.03143174 -0.04854662 0.02777951 -0.24460284 0.107801236 -0.113986805 0.20631996 0.16498208
0.13933925 0.024961174 0.005983075 -0.07280828 0.2334523 0.11363701 0.05812054 0.1592432
-0.11833981 -0.015175327 0.097336754 -0.018606132 -0.19893469 0.1464101 0.14359713 0.08073184
0.01208366 0.07846625 0.16354387 -0.040267885 0.19307673 0.21167073 0.1363554 -0.12804613
0.072257854 -0.082248874 -0.19592555 -0.12013423 -0.15179417 -0.021876544 0.10428153 0.15053567
0.11911289 -0.107655674 0.025800174 0.19086857 0.016255366 -0.19550593 -0.115596674 0.2414654
-0.015565073 -0.024934603 0.05457543 -0.08241371 -0.27264038 0.24834776 -0.029300999 -0.11765389
-0.016924523 -0.23543236 -0.13959093 -0.26776463 -0.15828139 -0.19832511 -0.15606108 0.19604261
0.2082816 -0.16848977 0.08950889 0.22996134 -0.16543327 0.038847636 -0.0775762 0.03395391
-0.07120929 0.0036939818 0.09742758 0.18915798 0.23690543 -0.24788225 0.107850075 -0.034137663
-0.16334623 -0.08069461 0.012237338 0.16267326 0.14507066 -0.009909328 -0.07298105 0.19727649
-0.27179417 0.104060076 -0.13047975 -0.004243186 0.07618688 0.25270954 -0.13454477 0.1467516
-0.12370294 -0.034271907 0.048617348 -0.11819938 -0.19628058 -0.19345295 -0.21720831 -0.094711244
0.112504035 -0.13675022 -0.10114132 -0.05112945 -0.12978052 0.1180958 -0.20951223 0.19212702
-0.17917287 -0.2214915 0.08675574 -0.12184999 -0.22631787 -0.18321535 0.25524998 0.2467085
-0.023205109 -0.10859658 -0.01602614 -0.11503621 0.13571186 0.1690955 0.008326264 -0.081848264
0.24576993 -0.072738186 -0.14894032 -0.026754834 0.28231382 -0.22054198 0.13748296 -0.17627075
0.21174778 0.10548056 -0.097116545 0.18998078 0.21211185 -0.16043103 0.16154224 0.021444766
0.21214786 0.1547711 -0.22003014 0.24278606 -0.12793596 0.08977261 0.022836728 -0.1851291
0.15485273 0.10566362 0.15984915 0.14453712 -0.06467769 0.097519375 -0.14448743 0.02146768
-0.11759484 -0.18778688 -0.15651852 -0.008456341 0.1112876 -0.26763794 0.15025291 0.1443279
0.032522287 0.21564499 0.007443102 -0.03551963 0.14151175 0.075942874 0.20220481 0.080165535
-0.014356794 0.10824893 -0.22448741 -0.21535961 -0.117714204 -0.20912986 -0.051179156 -0.16707091
0.17582232 -0.1557734 -0.20454912 -0.15255772 -0.007539324 -0.06887459 -0.13182935 0.18648757
0.2055907 0.16529639 0.19461288 0.16802742 0.010105461 0.14351226 -0.12905464 0.20575996
-0.19404165 -0.18911836 0.13474622 -0.21076165 -0.13818471 0.1613187 -0.2441398 0.23929277
0.27454346 -0.015157699 0.135893 0.2400183 0.13252272 -0.039583024 0.21375783 -0.20421737
0.21706074 -0.046587136 0.09439719 -0.0048545767 -0.19185165 0.11336268 -0.088074334 -0.03288249
0.15056686 -0.24171746 -0.18641475 -0.26934692 0.17760937 -0.08198886 -0.04502112 -0.03710638

model/encoder_3/self_attention_2/dense_9/BiasAdd/ReadVariableOp:0 f4 [21]
00000000: 32e4 39bc 36df 16bb 690b a3bb a01d bbbb
00000010: 0e69 8ebc 4fba d93c 9f16 3cbb 3d5f 82bb
00000020: 8133 b53a fc1d a53c c6ff 8c3b 7eda 2f3b
00000030: db0d 27bc bdfa 60bc 387d edbb 09a3 32bb
00000040: 0134 a1bc a716 163a 47f6 80bc 88cb 9d3b
00000050: c8ad 88bc
-0.01134591 -0.0023021228 -0.0049757254 -0.0057103187 -0.017384078 0.026578097 -0.0028700007 -0.0039786384
0.0013824553 0.0201559 0.0043029515 0.0026833112 -0.0101961745 -0.013731656 -0.0072475933 -0.002725782
-0.019678118 0.00057254214 -0.015742434 0.0048155226 -0.016684428

model/encoder_3/self_attention_2/dense_11/Tensordot/ReadVariableOp:0 f4 [64, 21]
00000000: bed3 04be 1b1f 6dbe 734d 4bbe e400 8e3c
00000010: be53 00be bd2d a3bd 6301 9bbd d850 2c3e
00000020: b087 4abd fe9a b8bc 1796 98bd a53a 8a3e
00000030: e46e c0bd d9f4 213d 4092 33be 495d c83d
00000040: 3e78 c5bc b3a5 27be 8a4c 34be 1705 8bbd
00000050: 5520 6d3e 13a8 b1bd 5123 7bbd a230 0eba
00000060: 72f4 683e f335 d13d 4039 803e 1fe0 1bbe
00000070: 3751 36bc d721 d6bd 25e0 0a3e b8f3 5d3e
00000080: 4e4d 55be 1fc3 da3d 3d57 273d 63e8 1bbd
00000090: 7f9d b03d e887 2b3e 2c1c d43d 09b5 57be
000000a0: db6b 553e e201 92bd 8dbf 483e 8277 7cbe
000000b0: 5699 07be f668 79be 058c 02be da7f 15bc
000000c0: 8dd2 6ebe 8acc f0bd 9556 703e c95c 3e3e
000000d0: bbe6 973c 71f8 e33c 412a 053e e468 393e
000000e0: 4279 413e d915 243e 3982 15be c577 c8bc
000000f0: 9a23 31be de76 0cbd 72de 163e 6fb6 2b3e
00000100: e438 a3bc 848d 9abd ec28 71be 2dd5 07be
00000110: 42f2 82be 864e fabd 8ed6 e73d 316b 3bbb
00000120: 5be4 ddbd b3b2 293d 65f5 c4bd df77 693e
00000130: 49af 31be 1da9 3c3e 7fdb 26be 8beb ac3d
00000140: f6a4 563e aee4 1e3e 575e 7e3e 16b7 4abe
00000150: d621 cfbd 7168 323e e4ef 083e 8206 e6bd
00000160: dfed 913d f39e d23c 774a 72be b5fe 3cbe
00000170: 7752 9bbc 2b2a bbbd 2880 a6bd fc2e 17be
00000180: d6b7 47be 494a 533e e80a f7bc 5899 443e
00000190: 0598 42be 4e83 2fbe f95f 14be cc89 5fbe
000001a0: c458 53be c29d 263e a4f6 ce3d 8283 5d3e
000001b0: 6b39 3d3e 3d64 11be 3468 dc3d 3d8b 383e
000001c0: b777 b73c f026 f7bd ffae b1bd af66 453e
000001d0: ec65 5ebe d7e8 0d3d 1d41 e43d 45e6 45be
000001e0: 5779 a83d acb9 273e 1e23 5abd 65f5 8b3e
000001f0: 8648 b73d 7b8e a43b 2f0b 25be 405e 6fbe
00000200: 266d 1f3e ab13 2f3d 336e 4bbc 8c7e 67be
00000210: 86fb 6b3e d31c cabd 6ee4 093e 474d 353d
00000220: 52a3 653d dd3b 5bbe 44be 353e cc3e 0a3c
00000230: 8fc9 3a3e 239a 34be a24d 5ebe 4aa5 823e
00000240: 35e4 853e d9bf 86bc d1a1 02be a8ee 81bd
00000250: dcb5 5f3e bd40 c3bb 23c3 a43d e9ec a13c
00000260: a83f 4e3e 7461 243e 1012 4b3c f884 793e
00000270: a813 87be c77e e13d 02cb 093e fffd 6f3e
00000280: 088f 34be f0ff 163e 5c81 6ebd cd91 f2bd
00000290: 31a7 2e3e 4535 183e 41cc 463e 0a09 a53d
000002a0: c13d 263e 15d6 fb3d f4e1 6c3e cca2 5b3e
000002b0: 40a2 59be 4c59 85bd da44 433e f8a3 1f3e
000002c0: 94c8 163e d8a5 993d 81dc 9d3d fdd6 53be
000002d0: b051 ab3d 4668 2f3e 6682 20be 6745 3cbd
000002e0: c233 c53d 2174 60be bd6e 35bd 524e 76bc
000002f0: 0547 823e 4fb0 813e e895 4b3e 2a50 4abe
00000300: e777 3a3e b880 85bd 0a57 ebbd 54ef 9cbd
00000310: 2b93 b4bd a56e b03d ad55 0abe cb71 5abe
00000320: f7e6 66bd c937 623d 62db 5bbe d338 e6bc
00000330: 74e6 bdbd 3fa3 6ebe 6d39 f83d 71ec 51be
00000340: 8027 59be e6eb 74be 90f4 833e 6254 bc3c
00000350: e89b 38bd 8726 833e ce24 79be c61b 723d
00000360: 8df7 6bbe b90a 1abe ec99 07be 583c dc3d
00000370: 0487 283e 1053 75bc c77c 213e 12d9 45bd
00000380: 046e 02be ce7c 5c3e 68d1 f0bd 6232 4d3e
00000390: 69a8 53be 5d8e b3bd 0eef 42be 885c 83bd
000003a0: 63dc 5d3e 00ca dc3d eb46 f23d 9a51 623d
000003b0: f398 29be 1a40 6a3e 63b5 333e 80dc a2bd
000003c0: f955 553e e231 76be a794 8d3d c80c 0c3d
000003d0: a7d5 75bb eb54 363e efa5 6abe 4be5 8bbd
000003e0: 4af2 5fbe 1329 f03c f412 51be de0b 86bd
000003f0: 9b39 63be 94e2 92bd 9e7a 47be 19bb 91bd
-0.12971398 -0.23156397 -0.19853763 0.017334409 -0.12531945 -0.07967708 -0.07568624 0.16827714
-0.049445808 -0.022534844 -0.07450502 0.26997867 -0.09396151 0.039540146 -0.17536259 0.09783418
-0.024105188 -0.16371803 -0.17607322 -0.0678808 0.23156865 -0.08674636 -0.061312977 -0.0005424117
0.22749498 0.10215368 0.25043678 -0.15222214 -0.011127762 -0.10455673 0.13562067 0.21675003
-0.2083027 0.10681748 0.04085468 -0.038063418 0.0862379 0.16751063 0.10356936 -0.21065153
0.20841925 -0.07129265 0.19604321 -0.24654964 -0.13242087 -0.24356446 -0.12748726 -0.0091247205
-0.23322506 -0.11757763 0.23470528 0.18590082 0.018542638 0.027828427 0.130044 0.18106419
0.18893912 0.16023959 -0.14600457 -0.024471173 -0.17298737 -0.034293048 0.14733294 0.16768812
-0.019924589 -0.07546523 -0.23550767 -0.13264914 -0.25575453 -0.122220084 0.1132022 -0.0028597827
-0.10834571 0.041430186 -0.09617118 0.22799633 -0.17352022 0.18423887 -0.16294669 0.08443364
0.20961365 0.15516922 0.24840675 -0.19796404 -0.101138756 0.17422654 0.13372761 -0.1123171
0.071254484 0.025710559 -0.23661219 -0.18456538 -0.01896022 -0.09138902 -0.081299126 -0.14764017
-0.19503722 0.20633806 -0.030156568 0.19199121 -0.19003303 -0.17139933 -0.14489736 -0.21829909
-0.2063933 0.16271117 0.10105637 0.21632197 0.18478934 -0.14198394 0.10762063 0.18021865
0.022395952 -0.120679736 -0.08675956 0.19277452 -0.21718568 0.03464588 0.11145232 -0.19326122
0.08226269 0.16379422 -0.053256147 0.2733566 0.089493796 0.005021868 -0.16117547 -0.23375797
0.1556898 0.042743366 -0.01241641 -0.22606868 0.23045167 -0.09868779 0.13466045 0.04426315
0.056063958 -0.21409555 0.17748362 0.0084378235 0.18240951 -0.17636923 -0.21709302 0.2551673
0.2615067 -0.016448902 -0.1275704 -0.06344348 0.21846718 -0.005958645 0.08045032 0.019766288
0.2014147 0.160528 0.012394443 0.2436713 -0.26382184 0.11010509 0.13456348 0.23436736
-0.17632687 0.1474607 -0.058228835 -0.118442155 0.17055966 0.1486407 0.19413854 0.08058365
0.16234495 0.12296692 0.2313307 0.21448821 -0.212533 -0.06511173 0.19069234 0.15589893
0.14724952 0.07502335 0.077080734 -0.2068748 0.0836519 0.17129621 -0.15674743 -0.045964625
0.09629013 -0.219193 -0.04429506 -0.015033321 0.2544481 0.25329825 0.19881403 -0.19757143
0.18209802 -0.06518692 -0.11491211 -0.07662836 -0.088171326 0.08614854 -0.13509245 -0.21332471
-0.05637261 0.055228982 -0.21470407 -0.028103268 -0.09272471 -0.23304461 0.12120328 -0.20500351
-0.21206474 -0.23918113 0.25772524 0.022989456 -0.04507056 0.25615332 -0.24330446 0.059108518
-0.23043652 -0.15043153 -0.1324231 0.10753697 0.16457754 -0.014973417 0.15770255 -0.048302718
-0.1273728 0.21531984 -0.11758691 0.20038751 -0.20669712 -0.08767388 -0.19036505 -0.06414133
0.21666102 0.10780716 0.11829933 0.055253603 -0.16562252 0.22876015 0.17549662 -0.07952213
0.20833577 -0.24042466 0.06913119 0.034191877 -0.003751138 0.17805831 -0.22914861 -0.068308435
-0.2186977 0.02931646 -0.20417386 -0.06545232 -0.22189943 -0.071721226 -0.19480368 -0.07115764

model/encoder_3/self_attention_2/dense_11/BiasAdd/ReadVariableOp:0 f4 [21]
00000000: 1e3c 51bb 46e9 223b 3d55 3bbb eac1 243b
00000010: f9be 8a3b 20cf 113c 56b0 d9b8 b2d5 8e3a
00000020: be4a 4cbb 00e0 adbb fea8 2d3b f584 273b
00000030: dedf d5bb a03b f2ba 2c2a 063b e117 7f3b
00000040: 7692 f8b9 3c10 92bb 5ebe 8fbb ad4e abba
00000050: 1ff3 223a
-0.0031926702 0.002485828 -0.0028584742 0.0025139996 0.0042341915 0.00889948 -0.000103802115 0.0010897426
-0.003117248 -0.005306244 0.0026498432 0.0025561426 -0.006526931 -0.0018480904 0.0020471914 0.0038924145
-0.00047411368 -0.0044575017 -0.004386707 -0.0013069712 0.00062160374

model/encoder_3/self_attention_2/dense_10/Tensordot/ReadVariableOp:0 f4 [64, 21]
00000000: 9f43 573d 0bbb 38bb 87c3 8e3d 6bd6 0ebe
00000010: 64e5 323e 0d44 b73d 8605 1abe 75a9 1cbe
00000020: e03c f33c 8d70 503d fc7c 34be c391 92bc
00000030: 3cd0 60be 94d4 f8bd 2857 603e 6c84 0abe
00000040: 96f1 523d 831f 7cbe 1635 fdbd 6e53 583e
00000050: 90fc 6b3e a4a5 313d fb5c ce3d 5f3f c3bc
00000060: 83e4 7dbd 1e7d d1bd 56f2 67be b25e 943c
00000070: 5e04 023e ee0b 6d3e 2b24 3d3e b5c2 343d
00000080: f0d1 dc3d edf4 61be a574 1abe 3d6b 313c
00000090: 96e5 46bd a59c 17be c786 213d e1da 253e
000000a0: 2aa6 613d 5804 9a3d 62a9 ad3c 27d0 47be
000000b0: bdb0 33bc 97cc 173d af25 fcbc 2dcc 833e
000000c0: e49c 273d 04d0 15be b43f 3fbe b439 bfbd
000000d0: 0c8e 73be 6a3c e9bc 1d22 c7bd d423 bdbd
000000e0: 1653 383e 0035 56be bc9a 17be b9c2 373e
000000f0: 5496 94bd 2137 ac3d d00c 49be 476b d7bc
00000100: ca73 a13d ce08 483d 7ea5 eabd 87c4 3e3e
00000110: 417e 6c3e 8487 96bd 48aa debd be60 6fbd
00000120: 77a4 45be de57 85be eed3 083e de87 533d
00000130: ed83 7a3e 868c df3d 693e 3dbe a744 88be
00000140: 64f3 513e ef28 74bd 5e45 1d3d e8b1 52be
00000150: 4002 2abd 701f 1e3e afb5 c0bd 8da4 54bd
00000160: ad03 ecbd f3e4 eebd 3178 4cbe 97de 513d
00000170: b1a1 0abd 15ec 27bd 1f3a a13d 7bae 52be
00000180: 401e f5bd d584 1f3e f4ec 643c fb83 5b3c
00000190: 7916 08bd a489 593e 7490 763e bc13 32be
000001a0: aab6 0abe 97ad 143e 1fcf 24be 46e2 00bd
000001b0: 3b1f 1c3e e387 5ebd 81c5 503c ac7a 3c3e
000001c0: 25fb b0bb ce19 683e b50e 48bd f7a7 963c
000001d0: 7bda 5dbe c0d1 533e 7608 3dbe 3f54 083e
000001e0: 1c42 c53b 6dbe 523e f9ba 26be a4c4 6e3e
000001f0: 039f 8a3e 8f48 5b3e d350 66be b7bd 883e
00000200: 24ed 6e3e bed6 0abe 2cfc 38be e1a6 71bd
00000210: 1ee8 36be 134d 4d3e adfa 87be 5a7a 143d
00000220: 5675 1d3e 8fa1 71be 4157 903d 0f0e a7bd
00000230: cd48 8d3e aedf fcbc 7b86 7cbe 757f 843d
00000240: 2f1b 29be c3c0 a5bd 88db 49be a296 3a3e
00000250: ea1a 363e c3bc e4bc 8cc6 f4bd 6632 47bb
00000260: 0c74 293e b57a 59be 8195 f23d 894d 2dbe
00000270: 95e9 35be 6ff4 023e 69d1 b83d 743a b73d
00000280: ab70 a9bd 6e40 3fbd 35f1 0e3e 7359 e13d
00000290: 293e 083e 81fc 823e d264 833c bbc4 593e
000002a0: 68d8 ca3c bd49 fd3d 82ad 04be 18bb e73d
000002b0: 4e84 aebd c5b6 713e 5fa5 b63b 81c9 be3d
000002c0: 6bac 6fbe 8bf5 483e 9f6f e23d b63e b4bc
000002d0: 6e35 59bd 5b3d 633e 5b54 1dbe e46c 2b3e
000002e0: 4b29 203e 4589 bbbc 5e8d 72be cc09 44be
000002f0: 572c 80b9 3a6e 91bd a070 fdbd a4e4 183e
00000300: 1e43 c1bd 4e1d a73d c407 64bc f135 89be
00000310: 6790 103e c45c 1f3e 3b98 1ebe cec3 ea3d
00000320: e48e 87be 39f0 39be e840 57be d172 87be
00000330: a496 aebd 4dff 58bd 44a1 5ebe e627 39bd
00000340: 2785 f2bc 7c37 283d d164 3cbe 8e81 88bd
00000350: 97be 63be 1625 783e a109 203e 2d0a ee3d
00000360: 68da 583d f43e e7bd b655 443d 87d0 d03c
00000370: ba71 69be dbf5 2f3e 41f8 7a3e df5c 49bd
00000380: 669e 2ebe 0b3f 85be 707c f93d ef2a 57be
00000390: 6291 b23d f90e 5bbe 504b 713e 9cf3 823e
000003a0: 5d05 213d b2ac 8d3d 7152 31be 2b03 e03c
000003b0: 75af 47be 0261 41be 8bd3 b93d a035 efbd
000003c0: 253d 76be 60b7 2abe 8851 8f3d 51cd 94bd
000003d0: d567 463a 6fff b33d 8bf4 603d 67cd 4f3e
000003e0: 912b 0ebe 865c c63c 5d4c acbd 8c6b 043e
000003f0: 496c f5bd 5828 86bd 9b0e f93b 69b3 893a
0.052554723 -0.0028187658 0.06970888 -0.13948981 0.17470318 0.089485265 -0.1504117 -0.15299018
0.029692113 0.050888587 -0.17625803 -0.01789177 -0.21954435 -0.12149921 0.21908247 -0.13527077
0.051499926 -0.24621396 -0.12363641 0.21125576 0.23045564 0.043370858 0.10076328 -0.023833929
-0.061985504 -0.10228942 -0.22651038 0.01811156 0.12696978 0.23149082 0.18470828 0.044131
0.1078223 -0.22066088 -0.15083559 0.01082879 -0.048558794 -0.14805849 0.039435174 0.16196777
0.055090107 0.0752036 0.021198932 -0.19512998 -0.010967431 0.037060346 -0.030779688 0.2574171
0.040921107 -0.14630133 -0.18676645 -0.09337178 -0.23784655 -0.02847119 -0.097233035 -0.09235349
0.18000445 -0.20918655 -0.1480512 0.17945375 -0.07255235 0.084089525 -0.19633794 -0.026296271
0.07883413 0.04883652 -0.114573464 0.18629657 0.23095037 -0.07350066 -0.10872322 -0.05844187
-0.1930102 -0.260436 0.13362095 0.051643245 0.24464388 0.109154746 -0.18480839 -0.26614878
0.20503002 -0.05960935 0.03839623 -0.20575678 -0.041506052 0.1544168 -0.094096534 -0.05191474
-0.115241386 -0.11664762 -0.19967724 0.05123767 -0.033845607 -0.04099663 0.07872414 -0.20574372
-0.1196866 0.15578015 0.01397251 0.013398166 -0.033224557 0.21243912 0.24078542 -0.1739034
-0.13546243 0.14519344 -0.16094635 -0.03146579 0.15246288 -0.05432881 0.012742401 0.1840617
-0.0054010325 0.22666094 -0.04884215 0.018390639 -0.21665375 0.20685482 -0.18460259 0.13313387
0.0060198437 0.20580454 -0.16282262 0.233172 0.2707444 0.21414398 -0.2249177 0.2670724
0.2333265 -0.1355848 -0.18064946 -0.05899704 -0.17861983 0.20048933 -0.26558438 0.036249496
0.15376791 -0.23596786 0.07047892 -0.08156978 0.27594605 -0.030868378 -0.24660675 0.06469623
-0.16514276 -0.08093407 -0.19712651 0.18221524 0.17783704 -0.02792204 -0.11951932 -0.003039503
0.16548175 -0.21238215 0.11844922 -0.16924109 -0.17764886 0.12788557 0.09024317 0.08946696
-0.08273443 -0.046692304 0.139592 0.11003389 0.13304962 0.2558327 0.016039286 0.21266453
0.024761394 0.1236758 -0.12956813 0.11314982 -0.08521329 0.23604877 0.005573913 0.093157776
-0.23405616 0.19624917 0.11056446 -0.02200256 -0.05302947 0.22191374 -0.1536421 0.16740757
0.15640752 -0.022892604 -0.2368674 -0.19144362 -0.00024447098 -0.07101102 -0.12374997 0.1493097
-0.0943663 0.08159886 -0.013917867 -0.26798967 0.14117585 0.15562731 -0.15487759 0.11463128
-0.26476204 -0.18158044 -0.21020854 -0.26454785 -0.08524826 -0.05297785 -0.21741205 -0.045204066
-0.029604508 0.04106854 -0.18397833 -0.066653356 -0.22240673 0.24232897 0.15628673 0.116230346
0.052942663 -0.11291304 0.047933303 0.025490059 -0.2279729 0.1718363 0.24508764 -0.049160834
-0.17052612 -0.2602466 0.12181938 -0.21012472 0.08719136 -0.2139243 0.23563886 0.25576484
0.039311755 0.06917705 -0.17316605 0.02734526 -0.19500525 -0.18884662 0.09073552 -0.1168015
-0.24046762 -0.16671515 0.06997973 -0.072657235 0.0007568573 0.087889545 0.054920714 0.20293199
-0.13883807 0.02421404 -0.08413003 0.12931651 -0.119835444 -0.06550664 0.007600618 0.0010505739

model/encoder_3/self_attention_2/dense_10/BiasAdd/ReadVariableOp:0 f4 [21]
00000000: 3e9d 1b39 433c aeb9 6fe4 3e3a dc8e 27ba
00000010: f260 2f3a 2373 d7b9 7888 6439 0a82 15ba
00000020: ce78 5d3a 2429 90ba e6c0 ab38 d8c1 3fba
00000030: 2770 cfb9 6167 153a 17c9 6fb9 ea2a f239
00000040: 425b bc39 a0dd 693a e607 32b9 4abe a638
00000050: 914c 8539
0.00014840529 -0.00033232765 0.0007281964 -0.0006391832 0.0006690166 -0.0004109378 0.00021794613 -0.0005703276
0.0008448482 -0.0010998589 8.1898455e-05 -0.0007314957 -0.00039565677 0.00056993036 -0.00022867728 0.0004618981
0.00035926147 0.00089212693 -0.00016978345 7.950941e-05 0.00025424783

model/encoder_3/self_attention_1/dense_8/Tensordot/ReadVariableOp:0 f4 [64, 21]
00000000: 4e40 493e 3439 26be dfe0 8e3d 05e6 2ebe
00000010: 135e 4c3e 049a f9bd f1db 9d3d fa97 f53d
00000020: b32e 65be aee3 b83a f17a 033d d991 ccbd
00000030: 9436 08be c0b1 b03d fe39 d2bd c5b8 41be
00000040: ad68 67be 8688 cebc e464 023d 78f0 523d
00000050: 9d43 afbd 5659 ba3d f717 943d 6b9e 5c3c
00000060: b12c 873e 58e1 3c3e 7559 0abc f45f 203e
00000070: 482f 5e3e 5a27 81be 5ffa 543d 27ff 783e
00000080: 879b 5bbe baba 0f3e 0d67 683e 56ec 41bd
00000090: 8696 82bd 20a0 8dbd 0d01 15be 3210 a53d
000000a0: 7560 483e b5fa bbbd 3cdb 90bd 4508 993d
000000b0: 2199 c73c 6957 2abe 3333 3f3e ef44 223e
000000c0: 45ce 683c 2017 8f3b 868e 38be 37c5 2d3e
000000d0: 7a45 d4bd f577 f83d e887 3a3e 88ad 0cbe
000000e0: 51de 7f3d 4495 01bd 0eda 9e3d 706d 38be
000000f0: bc48 84be fb76 4a3d f8a9 fbbd 383e 3dbe
00000100: faca 1abe 53c7 6dbe f388 6fbe 4036 5d3c
00000110: c077 88bd 12c1 423d e721 d8bd 63c2 c5bd
00000120: 5336 5e3c b254 ecbd 51e9 80be acbd ef3d
00000130: 59e7 5bbe 6ec5 05be f65e a63d 328a 3c3e
00000140: 0c59 7abe 314d 6abd a626 363d 1da1 06be
00000150: 1dfd bdbd 615f 0b3e 8c41 55be 6c6c 56be
00000160: e9e6 273e f139 60be b2b1 c1bd 94a0 a2bd
00000170: a061 d43d 3669 ac3d ebee 47bd 622e 31be
00000180: 1961 30be 82d2 b33d 8ae7 fabd 303e 92bd
00000190: 2e12 263e e1e9 353e de81 4f3c 0b7b 833d
000001a0: 9738 6cbe 4fc3 f2bc 48c9 853c 0b46 853e
000001b0: 056d 2b3c 6627 6ebe 984d 5c3d 899f 6e3c
000001c0: 91f4 763e b670 143d 68e5 c43c e5dd b43d
000001d0: f3d0 1dbd 68ee 79bd bc6d 813e 59c1 46be
000001e0: b2d1 b63d b18e 75be c4a9 203d 9b56 05bd
000001f0: 94f5 15be fca2 863e b266 9c3d 2108 16be
00000200: c6ee a3bd 2cf2 443d 8f9e 1f3e 4fd9 27bc
00000210: 564f 23bd 26d6 263e bfab 71be 77b0 70be
00000220: eff0 64be 003c a53d 7531 2cbc c464 1ebe
00000230: 0e54 083d 3542 1dbe fa4b 803e 187e 823e
00000240: 3c22 5cbe b40b e53d 13d8 3bbe d1e7 3cbe
00000250: 9920 a13c 7739 833e 659b 043e c66a 203e
00000260: 1abe 6ebe afed a5bc 9647 82be 5f17 4ebd
00000270: bd31 433e f740 58be 8f57 293e f0f3 ecbd
00000280: a480 113e 2e57 67bd ef02 293e 74c3 3fbd
00000290: 537b b63d 3c5a 50be c19b 863d cfde 3c3c
000002a0: 4d18 343e 1483 983d 74cb 623c 58dd 5e3d
000002b0: bf3e 553e e1b4 b8bd 7bae 5a3e 5b53 4bbe
000002c0: 6b43 c2bd 2676 123e 0c3f 07be 976f 4ebe
000002d0: 02f8 90bd 16a4 643d 4da9 293e 73b9 58be
000002e0: 02f3 193e 0b6d 15bd 32c4 0d3e 4f40 31be
000002f0: cf32 0ebc 30d1 82be 80b4 b73d ebf3 20be
00000300: 0297 3abe ac79 59bd 745d 09be 5ac2 cd3d
00000310: 22fe d93c c462 b83d dc1d 963d b7a7 0fbe
00000320: 56d2 57be b758 083e 334d 013e 9d53 213e
00000330: ccc4 183e 9419 36bd fce0 983d cd94 5abe
00000340: 2615 80be bbf1 733e edf8 98bd aca0 2cbe
00000350: 00f7 383e 4d92 243e 58f0 c63d 4387 db3d
00000360: cd68 13bc 757b 163e 7011 713d 6eb0 a9bd
00000370: 0df3 70be fa7d e33d 7c15 2ebe 3db1 68bd
00000380: b906 203c f449 9e3d 6c6d 283e c507 db3d
00000390: 6fc1 6d3e aad2 6cbd bb7f 273e 414c 363e
000003a0: 5aa0 843e 0c3c 1abe dde6 733e 19e1 28be
000003b0: 0877 3cbe 80d5 023e 790f 59be f4aa 65bd
000003c0: f0a3 26be 11ac 62be b1dd a3bd fb94 093e
000003d0: 1fb4 043e 2170 33be 167d edbd e740 f6bd
000003e0: efdf 183d 07db 533e 01b6 9b3d 983e 903d
000003f0: 1e68 08be a7f8 3fbe 535e 073e 8917 7bbe
0.19653437 -0.16232759 0.069764845 -0.17079933 0.19957761 -0.12187579 0.07707966 0.11991878
-0.22381096 0.001410594 0.032099668 -0.09988756 -0.1330207 0.08627653 -0.102649674 -0.1891814
-0.22598524 -0.025211584 0.031834498 0.05149886 -0.08557818 0.09099071 0.072311334 0.013465504
0.26401284 0.18445337 -0.00844418 0.15661603 0.21697724 -0.25225335 0.051996585 0.24316083
-0.21446048 0.14036074 0.22695561 -0.04734453 -0.06376366 -0.06915307 -0.14551182 0.0805973
0.19568045 -0.09178678 -0.07073066 0.074722804 0.02436501 -0.16634907 0.18671875 0.15846609
0.014209335 0.0043667704 -0.18023118 0.16969763 -0.10364814 0.12132255 0.18215907 -0.13738072
0.062467877 -0.03163649 0.077564344 -0.18010497 -0.25836742 0.049429875 -0.12288278 -0.18480766
-0.15116492 -0.23220567 -0.23392086 0.013501704 -0.066634655 0.047547407 -0.10553341 -0.09656217
0.013562757 -0.11539592 -0.25178006 0.11706099 -0.21474971 -0.13063595 0.08123581 0.18412092
-0.24448031 -0.05720252 0.04447045 -0.13147397 -0.09276793 0.13610603 -0.20825785 -0.20939797
0.16396679 -0.21897103 -0.09457721 -0.07940784 0.10370183 0.08418505 -0.048811834 -0.1730285
-0.1722454 0.087803856 -0.12251194 -0.071407676 0.16217873 0.17764999 0.01266524 0.06419953
-0.23068462 -0.029634146 0.01633133 0.2603 0.010463004 -0.23257217 0.053784937 0.014564403
0.24116732 0.036240302 0.02403517 0.088313855 -0.038529348 -0.061018378 0.25279033 -0.19409694
0.08926715 -0.23980214 0.0392244 -0.032553297 -0.14644462 0.26296222 0.07636775 -0.14651538
-0.08004527 0.048082516 0.15587829 -0.0102446815 -0.039870583 0.16292629 -0.23600672 -0.23504816
-0.22357534 0.08068085 -0.010509838 -0.15468127 0.033283286 -0.15357287 0.25057966 0.25486827
-0.21497434 0.11183873 -0.18344145 -0.18447806 0.019668864 0.2562978 0.12949903 0.15665731
-0.23314705 -0.020254938 -0.2544524 -0.050315257 0.19061942 -0.21118532 0.16537307 -0.11569965
0.14209229 -0.056479625 0.16505025 -0.046817258 0.08910241 -0.20346922 0.065726765 0.011527731
0.17587395 0.07446876 0.013842452 0.05441031 0.20824717 -0.09018875 0.21355622 -0.19856016
-0.09485515 0.14302883 -0.13207644 -0.20159756 -0.07078554 0.055820547 0.1656849 -0.21164493
0.15034106 -0.036480945 0.13844374 -0.17309688 -0.008679106 -0.25550222 0.089699745 -0.15718047
-0.18221667 -0.05309455 -0.13414556 0.10046835 0.026610438 0.09003213 0.07329914 -0.14028822
-0.2107633 0.13315092 0.12627105 0.15754552 0.14918822 -0.044457987 0.07464787 -0.21345825
-0.25016135 0.23822682 -0.07469354 -0.16858166 0.18062973 0.16071434 0.09713811 0.107191585
-0.008997154 0.14695533 0.05885452 -0.082856044 -0.23530217 0.111080125 -0.17000383 -0.056809653
0.009767228 0.07728949 0.16447991 0.10694841 0.2321832 -0.057818092 0.16357319 0.17802526
0.2590359 -0.15061969 0.23818536 -0.16492118 -0.18404782 0.12776756 -0.21197309 -0.056071237
-0.16273475 -0.2213595 -0.08001269 0.13435738 0.12959336 -0.17523243 -0.11596124 -0.12024098
0.037322935 0.20689021 0.07603074 0.07043189 -0.13320968 -0.18747197 0.13219576 -0.24520697

model/encoder_3/self_attention_1/dense_8/BiasAdd/ReadVariableOp:0 f4 [21]
00000000: 4f3f c0ba e0bc 4b3b b50d 823a 9da1 7d3a
00000010: 50ad 86ba 01b0 adbb fdbf 943b d18f 1d3c
00000020: ff7a 663a e4f2 f139 ed4d 103c aa6f 813b
00000030: 6940 903b aa8a 463b 95c2 d93b 82c8 533a
00000040: e415 daba 727a 8b3b b0c0 1ebb f4da 52b9
00000050: d4b3 67bb
-0.0014667305 0.003108792 0.0009922298 0.00096752663 -0.001027504 -0.0053005223 0.0045394883 0.009616808
0.00087921316 0.0004614807 0.008807641 0.003950079 0.0044022095 0.0030295053 0.0066455104 0.0008078889
-0.0016638604 0.00425654 -0.0024223737 -0.00020108727 -0.0035354989

model/encoder_3/self_attention_1/dense_7/Tensordot/ReadVariableOp:0 f4 [64, 21]
00000000: 4e31 e93c 3399 e2bc 65d7 533e 2f53 39be
00000010: 57da 493e 665d d63c 191b 50bd ef71 12bd
00000020: 07ff 31be 8f11 2c3e c837 493e dd7a 9cbb
00000030: 8723 8b3e ac75 6fbe 1c1e 2b3e 4af2 1c3e
00000040: 2757 663d 65cf 2abe b4e6 9ebd 0202 7c3d
00000050: e73c 01bc 3c7c 1abd 6e6b 66be f910 413e
00000060: c335 713e 2432 d63d 622f 74bd 5552 48be
00000070: 6c17 29be 61ff cb3d dfd1 ea3c 8328 babd
00000080: 3ab8 12be eca4 653e e1e1 423e 1df5 c6bd
00000090: ba9a 5ebd 610f 04be 102b 6ebd d7bd 18be
000000a0: 47d2 b4bd 1bc8 39be 2672 113b 94ea 64bd
000000b0: 241d 68be 43cb 803e 2268 183e df3f 8e3d
000000c0: 7a8a 673e f6a2 0f3e 2829 f93d 8a95 2c3d
000000d0: 4f41 93bd 1146 37be 8e6a 5a3e f7e5 543e
000000e0: 8610 023d 63c4 153e 0ee8 c5bd 3a27 563e
000000f0: c5c6 7f3e 7275 a83d 1a79 55be 758e a13d
00000100: da52 56bc 2035 2dbe 686c 43be dd63 023e
00000110: f372 fa3d c3fe 00bd 266d 153e 3eff dabc
00000120: c3d5 3dbe ca40 383e 4c18 63be 7ac9 5f3e
00000130: c137 6d3e f4ca 103e 59c5 eabd 6a1b 8bbd
00000140: f56b 06bd 9651 a23d 7d41 cdbc 6524 153e
00000150: 27f5 b1bd e9b7 503e ed8b 1abd 60f3 5fbd
00000160: 8a7d 1fbd e002 183e 5a5f 21be c211 b2bd
00000170: a97a 42bd 5abd 54be 54dc 6abe 9404 023e
00000180: 366d 99bd 6760 283d 71a5 4f3d 8af8 ef3c
00000190: 472d 62be 279f 98bd 4144 e53d 149d 323e
000001a0: 7d9f a33d f262 81be 1524 70be fb4f 713d
000001b0: 96b9 783e 3c49 3fbd c520 613e aa00 3fbd
000001c0: 1c7c bebc 9b35 ac3b c01b 3b3e 9de5 5ebd
000001d0: b9d1 fbbd 6de6 65be cfcb 52be aee1 6738
000001e0: cef5 33bd 94ee a73c b6f2 d13d b047 1dbc
000001f0: 94dd 0f3e 9a10 56bd cc01 00be 621d bf3d
00000200: 2d2a 3abe 0107 493d e52a 6b3d 3fae 5cbe
00000210: c0fd 1c3e 1789 2bbe f6af bb3d 633b 7f3d
00000220: b093 b9bd e938 68be d307 f1bd 72ef 3abd
00000230: acd9 1a3e 1503 dcbd 56a3 293e fb55 aa3d
00000240: 81ad f3bc ae59 30be 6d03 77be 764f 86bc
00000250: 4931 cbbd 0db8 043e 8bf8 c7bd e3ff 57be
00000260: 5e98 6ebd 4f2f 27be d66f 703e 0332 4abd
00000270: c45c 72bd 9bdd 20be 7705 a53d 05b0 39be
00000280: 20de 90bd e927 8abe 4ea3 173e 3706 2fbd
00000290: 8cb0 c43c 9c66 5e3e 6ae6 0d3d 4b93 cabd
000002a0: a559 1bbe b59c ebbc 84b5 0c3d 0e99 34be
000002b0: aa3d 793c 4114 1c3d 86a2 853e ca4a 223e
000002c0: e7b4 b43d a319 213e 75a5 a0bd 75eb bf3d
000002d0: 48fc 66be 5569 39bd caa9 54bc 85b4 003e
000002e0: 2a5b b4bc 899b 6fbe 1554 0e3e 3690 883e
000002f0: 28c0 633e ad38 373e 7d9f 8f3d 37ca c7bd
00000300: d452 2b3e 40b4 6abe 58ea ddbb e6a3 67be
00000310: a1be 27be 1396 67bd 5300 cb3d 39a6 80be
00000320: ecc4 56be aa9a 63be 291b 423e bd3d 06be
00000330: b019 6dbd 81b7 72be cc9a 683e 2077 013e
00000340: 8c85 74be 6f10 7e3e 8ea4 033c 1638 b1bd
00000350: 9fb7 55be 5962 b33d 6ad2 c23d d853 8cbe
00000360: a5d3 113e 5c36 cd3d 57d4 24bd e422 4cbc
00000370: 5f23 813e 85b4 973c 4566 313e 0c30 9ebd
00000380: 19ee 5abe 833e 34bd acbb 1d3e a9c6 aa3d
00000390: 4a72 3cbe 483b 143e 5394 5a3e efce 303e
000003a0: 1044 1cbc 551f aabd a741 84bd 5281 53be
000003b0: 46ef e43d 7c98 0b3e b12e ebbc b4e0 62be
000003c0: 2367 e23d 04c3 44ba 548b 5f3e c40b cd3d
000003d0: 1d2e 9d3d e69a 7e3e d31e 663a 7b9b 1c3c
000003e0: 4bef b73d 6a59 c5bd db00 0bbd b74b 7dbe
000003f0: 3964 b53d 7d04 de3d f5a6 023d 12d4 2b3c
0.028465893 -0.027660942 0.20687635 -0.18098138 0.19712196 0.026167583 -0.050807092 -0.035753187
-0.17382441 0.16803573 0.19650185 -0.0047753886 0.27175543 -0.23384732 0.16710705 0.15326801
0.05623546 -0.16680677 -0.07758847 0.061525352 -0.007888055 -0.037716135 -0.22501919 0.18854131
0.23555665 0.10458782 -0.0596155 -0.19562657 -0.16512841 0.09960819 0.028664527 -0.09089758
-0.1432809 0.22426194 0.19031478 -0.097147204 -0.054346777 -0.12896492 -0.058146536 -0.14916168
-0.0882917 -0.1814274 0.0022193282 -0.055887774 -0.22667366 0.25155076 0.14883474 0.06945776
0.22611418 0.14027008 0.12166053 0.0421348 -0.07190191 -0.17897822 0.2132971 0.2079085
0.03175404 0.14625697 -0.096634015 0.20913401 0.24978168 0.08225526 -0.20846978 0.078885
-0.013081277 -0.16914797 -0.19084322 0.12733407 0.12228956 -0.03149296 0.14592418 -0.026733037
-0.18538575 0.17993465 -0.22177237 0.21854201 0.231658 0.1413992 -0.11463422 -0.06792338
-0.0328178 0.079257175 -0.025055641 0.14564665 -0.08689337 0.20382656 -0.0377311 -0.05467546
-0.038938083 0.14844847 -0.1575903 -0.08694793 -0.04748026 -0.20775357 -0.22935611 0.12697059
-0.074915335 0.04110756 0.050694887 0.029293317 -0.22087584 -0.07452231 0.11194659 0.17442733
0.07989404 -0.25270802 -0.23451264 0.058914166 0.24289545 -0.0467007 0.21985157 -0.046631493
-0.02325254 0.0052554137 0.18272305 -0.054418195 -0.12295861 -0.22451182 -0.2058556 5.5284872e-05
-0.04393559 0.020499505 0.102513716 -0.009599611 0.14049369 -0.052261926 -0.12500685 0.09331776
-0.18180151 0.049078945 0.057413954 -0.21550845 0.15331173 -0.16751514 0.09164421 0.062312495
-0.09061372 -0.2267796 -0.117690705 -0.04563851 0.15122098 -0.10742775 0.16566214 0.08317181
-0.029745819 -0.1722171 -0.241224 -0.016395312 -0.0992151 0.12960835 -0.09764203 -0.21093707
-0.058250777 -0.1632664 0.23480162 -0.0493641 -0.0591705 -0.15709536 0.08057683 -0.18133552
-0.07073617 -0.26983574 0.1480839 -0.042730536 0.024009965 0.2171883 0.034643568 -0.09891375
-0.15170915 -0.028761247 0.034352794 -0.1763651 0.015212456 0.038105253 0.26100558 0.15848842
0.08823567 0.15732436 -0.078440584 0.09371082 -0.22557175 -0.045266468 -0.012979934 0.12568863
-0.022016127 -0.23399176 0.13899262 0.26672524 0.2224127 0.17892714 0.07012842 -0.09755366
0.16730815 -0.22920322 -0.0067723207 -0.22621116 -0.16381313 -0.056539606 0.09912171 -0.25126818
-0.20973557 -0.22226968 0.18955673 -0.13109489 -0.057885826 -0.23702814 0.227153 0.12643099
-0.23879069 0.24810956 0.008034838 -0.08653276 -0.20870827 0.08758993 0.095127895 -0.27407718
0.14240892 0.10020134 -0.040241566 -0.01245949 0.25222299 0.018518696 0.17324169 -0.07724008
-0.2137989 -0.04400493 0.15403622 0.08338673 -0.18402973 0.14475739 0.21345644 0.17266439
-0.009537712 -0.08306757 -0.06457835 -0.206548 0.1117845 0.13632387 -0.028708788 -0.2215603
0.11054828 -0.0007505866 0.21830493 0.1001201 0.07674811 0.24863777 0.0008778397 0.009558554
0.089811884 -0.09636195 -0.033936363 -0.24735914 0.088570066 0.108407 0.031897504 0.010487573

model/encoder_3/self_attention_1/dense_7/BiasAdd/ReadVariableOp:0 f4 [21]
00000000: 2e24 01b7 f9a1 9a39 7177 41b9 d71a 3239
00000010: bd4c 0f3a 60fb 85b9 5280 09b9 1470 98b8
00000020: a351 7bb9 be52 c335 522a a0b9 7553 c4b9
00000030: 1df9 05b9 a90b 0a36 2df2 7839 1c07 8139
00000040: 176c 2039 6a51 c838 dcdf 9c38 9818 b839
00000050: 0e02 93b9
-7.697423e-06 0.00029493848 -0.0001845041 0.00016985401 0.0005466452 -0.00025555026 -0.00013113141 -7.268801e-05
-0.00023967637 1.4552713e-06 -0.0003054911 -0.00037446214 -0.0001277667 2.057039e-06 0.0002374134 0.00024610094
0.00015299056 9.551908e-05 7.480357e-05 0.0003511354 -0.00028039556

model/encoder_3/self_attention_1/dense_6/Tensordot/ReadVariableOp:0 f4 [64, 21]
00000000: 7093 5d3e 9f57 65be bf45 efbd b346 bcbc
00000010: 5a9b 453e b2e7 0e3e 73ab bbbd 02fe 893d
00000020: 94a4 babd 6786 5abe dcfc 083e d7a7 15be
00000030: 6928 313d 8dca 2f3e 968a 853d 5486 a0bd
00000040: 4491 38be 11fd 463e 094f 6dbd 70f7 2cbe
00000050: dcff c4bd c685 323c 228a 72be d888 89be
00000060: ae89 bdbd 4900 3b3d be27 42be c3a9 353e
00000070: 4fde 843d d666 73be 6a85 7d3d d673 c53d
00000080: fb91 34be 2116 ce3d 88f4 f7bd 98bc 663e
00000090: 5f6f dabd 5e71 0bbe dc90 853e 5611 0d3e
000000a0: b760 ffbc cc8e a03d 2cc5 893d c56d 5d3e
000000b0: 375a 803e 7fea 87be 9549 2bbd 2061 6ebe
000000c0: 2f8a 4a3e 801c 12bd 3245 7ebe d260 203e
000000d0: dedd 7a3e 420c f2bd aaed e0bc ee1b c03d
000000e0: 0db1 533e f4d0 af3d fa67 353e 769f 29be
000000f0: 405c 8fbd ca36 8fbd cb39 4c3c 6793 863e
00000100: 81fb 333e 8ff4 07be 5dcf 20bc 7426 843e
00000110: 92fb d43d c18b 1abe e35a 2f3e b262 69bd
00000120: 3c71 0abe b3a3 7cbe 59d0 1fbe 73a3 aa3d
00000130: 8c20 803e 89cf f23d 800f 883e 5922 d6bd
00000140: bec1 1bbe 2936 d93d 636c 41be 332e 523e
00000150: 6bd0 133e 6770 b4bd 0f9f 9839 80ea 183e
00000160: 6546 5d3e 2390 893c 800b 243e fdca 34be
00000170: a062 ecbc 715f 31be 5e60 823d ffba 2ebe
00000180: 8b0f 9bbd 54ed e83d 8d3c 753e a2fc 32be
00000190: 658c 123e 51ee 283e e46b 14be 853b 81be
000001a0: a1f3 56be b203 8b3d 1fb8 be3d 71d0 7bbd
000001b0: 16b6 963d a044 e13d e77d 053e e914 6ebe
000001c0: b508 afbd 7bfa 183e 7187 9abd 0fe8 1a3e
000001d0: 7c55 023e bfe1 833e 415a 0ebe 31d3 70be
000001e0: b01d 37be 2ac3 e43d 1a72 443e bba5 5b3e
000001f0: 0938 793e cd0a 5d3e 98ad 4f3e 1a36 99bd
00000200: 62f8 96bd 715c 8a3c e26a 1e3d 92cf f9bd
00000210: 9e83 fc3d d63c 303e a2b1 973d d035 743e
00000220: c75b 423d 1729 5abe 721a 0eba 9dc9 d8bd
00000230: 8378 1b3e 7d22 c9bd 9dde 613e 63c2 6c3d
00000240: e581 6bbe 0f27 a83d 4ab3 76be b8cb 42be
00000250: 6a6b b4bc 2e0c 91be 9ee9 3cbd 750b 55bd
00000260: 5176 483e f50d b9bd f5cd 6bbe e4eb 80ba
00000270: 2c9c 82be 5d4e 20be 7bb9 5bbe ae70 27be
00000280: 43d9 613e 6256 80be bae5 e2bd c3ce 893e
00000290: c466 0cbe 5330 79be 4732 34be f151 fabd
000002a0: 46b4 6fbe ce1b e1bd 0a79 4f3e 96d1 71be
000002b0: 56a8 5bbe facf de3d b10c 18bc dabb 293e
000002c0: dc59 423e b36a f83d 37fb 25be a5d9 92bd
000002d0: bb6a 7a3c 22ba efbd 5325 ed3d 8a97 ce3d
000002e0: 8f57 d23c c835 563d d5fc 853e 5c23 03be
000002f0: c91d 5a3d 46c2 7a3e d12b 523e a1dd 493e
00000300: 7c93 acbc 58b2 60be 05d8 793e 6fbf 873e
00000310: b48b 1bbd aed4 2dbe 0e3e 753e 37ac ce3d
00000320: c451 113e 95af 633c 60aa b1bd efea 66be
00000330: 5cdc 263e eaa5 1f3e 41a3 7d3d d3d8 023e
00000340: 9940 8cbe e257 4ebe 0f4e 65be 6c48 703e
00000350: 73d1 febd 8c59 9d3d 1326 d03d 044e c13c
00000360: 78cd f5bc f743 0a3e 0c03 87be d589 0d3e
00000370: 82fd 3b3e 3d76 483e ea00 f1bd 7e6d 84be
00000380: 9b18 78be a9de 53be 0fa4 843e a08c eebc
00000390: aaa1 053e ad09 c9bd 0b70 63be 2bdc 313d
000003a0: 0f5e 133e 3e7f 85be 9af0 0fbd 98f3 01be
000003b0: 91cf 47be 8ad4 4ebe 3896 cd3d 41c5 9bbd
000003c0: ebb0 8c3e 1826 9cbd 0791 fdbd df93 0a3e
000003d0: ed4c 5b3d f0ed 1d3e e658 543d 973d 2c3e
000003e0: 1399 693e e548 ea3d 574c 78bd 8902 4ebe
000003f0: ea81 5e3e f838 6c3e 0d1b 0c3e 67a2 593e
0.21638274 -0.22396706 -0.11683225 -0.02298293 0.19297543 0.13955572 -0.09163561 0.06737901
-0.09113422 -0.21340333 0.13377708 -0.14614807 0.04325143 0.1716711 0.06520574 -0.07838121
-0.18024164 0.19432475 -0.057936702 -0.16891265 -0.09619114 0.010896152 -0.23685506 -0.26862216
-0.09254776 0.04565457 -0.18960473 0.1774054 0.064877145 -0.23769698 0.06189481 0.096412346
-0.17633812 0.100628145 -0.121071875 0.2253288 -0.106657736 -0.13617465 0.2608708 0.13776144
-0.031174047 0.07839736 0.06727061 0.21623905 0.25068828 -0.26546094 -0.04181822 -0.23279238
0.19779275 -0.03567171 -0.24831083 0.15661934 0.24498698 -0.11818744 -0.027457077 0.09380327
0.20673008 0.085847765 0.17715445 -0.16564736 -0.07000017 -0.06992872 0.012464951 0.26284334
0.1757641 -0.13276885 -0.009815064 0.25810587 0.10399546 -0.15092374 0.17124514 -0.05697889
-0.13519758 -0.24671821 -0.15606822 0.08331957 0.2502483 0.118559904 0.26574326 -0.1045577
-0.15210626 0.10606033 -0.18889003 0.20525436 0.14434974 -0.088105015 0.00029110207 0.14933205
0.21608885 0.016792363 0.16020012 -0.17655559 -0.028855622 -0.17321564 0.06366037 -0.17063521
-0.07571324 0.11373392 0.2394888 -0.17479184 0.14311369 0.1649716 -0.14494282 -0.25240722
-0.20991375 0.06787814 0.09312462 -0.061478082 0.07358949 0.10999417 0.13036309 -0.23250164
-0.085465826 0.149393 -0.07545365 0.15127586 0.12727922 0.25758168 -0.13901617 -0.23518063
-0.17882419 0.11170037 0.19184151 0.2144994 0.24337782 0.21586151 0.20281065 -0.07481022
-0.07371594 0.016889783 0.03867615 -0.12197794 0.123297915 0.17210707 0.07406928 0.23848653
0.047450807 -0.21304737 -0.0005420811 -0.1058533 0.1518269 -0.09821031 0.22057576 0.05780257
-0.2299877 0.08210575 -0.24091831 -0.19023025 -0.022023875 -0.28329605 -0.046121232 -0.05201288
0.19576384 -0.09035865 -0.23027785 -0.0009835926 -0.25509775 -0.15654893 -0.21457474 -0.16351578
0.22055535 -0.25065905 -0.11078973 0.2691556 -0.13711077 -0.2433484 -0.17597304 -0.1222266
-0.23408613 -0.109916314 0.20261016 -0.23615107 -0.21450934 0.10879512 -0.00928037 0.16575566
0.18979591 0.12129726 -0.16209112 -0.07170419 0.015284236 -0.11705424 0.11579385 0.100874975
0.025676517 0.052297384 0.26169458 -0.12806457 0.05325106 0.24488172 0.20524527 0.19713451
-0.02106642 -0.21943033 0.24398811 0.2651324 -0.03797503 -0.16975662 0.23949453 0.10091441
0.14191347 0.0138968425 -0.086750746 -0.22550558 0.16294998 0.15590635 0.06192327 0.12778024
-0.27393034 -0.20150712 -0.22393058 0.23465127 -0.12442293 0.07683095 0.10163512 0.023596771
-0.030005202 0.13502489 -0.26369512 0.1382211 0.18358424 0.19576354 -0.117677525 -0.25864786
-0.24228136 -0.20690407 0.25906417 -0.02911979 0.13049951 -0.09816299 -0.2221071 0.04342286
0.1439135 -0.2607364 -0.035141565 -0.1269058 -0.19512774 -0.20198265 0.100384176 -0.076059826
0.27478728 -0.07624453 -0.123811774 0.13532971 0.05354016 0.15422797 0.051842593 0.1682037
0.228123 0.11439685 -0.06061968 -0.20118155 0.21729246 0.23068607 0.13682194 0.21253358

model/encoder_3/self_attention_1/dense_6/BiasAdd/ReadVariableOp:0 f4 [21]
00000000: 620b 553c cc47 5abc 2edb 023c cc4a 93bb
00000010: 9018 093b b484 ed3b 03ba 2d3c a700 9d3c
00000020: d78f e5b8 dad1 493c 6ac0 97bc 2e6f e83c
00000030: 46df 86bc e9b7 a4bb 50ce dd3c ee7d 653c
00000040: 4011 c7ba a195 a43b 3af9 623c 178c 13bc
00000050: b4c5 29bc
0.013003202 -0.013322782 0.007986827 -0.0044950005 0.0020919181 0.0072484855 0.010603431 0.01916535
-0.00010946363 0.012318099 -0.018524367 0.028373327 -0.016463887 -0.0050268066 0.027075917 0.014007075
-0.0015187636 0.00502272 0.013853366 -0.009005568 -0.0103620775

model/encoder_3/self_attention/truediv:0 f4 [1, 64, 64]
00000000: 0000 0000 8274 5f3e 8274 5f3e 8274 5f3e
00000010: 8274 5f3e 8274 5f3e 8274 5f3e 8274 5f3e
00000020: 8274 5f3e 8274 5f3e 8274 5f3e 8274 5f3e
00000030: 8274 5f3e 8274 5f3e 8274 5f3e 8274 5f3e
00000040: 8274 5f3e 8274 5f3e 8274 5f3e 8274 5f3e
00000050: 8274 5f3e 8274 5f3e 8274 5f3e 8274 5f3e
00000060: 8274 5f3e 8274 5f3e 8274 5f3e 8274 5f3e
00000070: 8274 5f3e 8274 5f3e 8274 5f3e 8274 5f3e
00000080: 8274 5f3e 8274 5f3e 8274 5f3e 8274 5f3e
00000090: 8274 5f3e 8274 5f3e 8274 5f3e 8274 5f3e
000000a0: 8274 5f3e 8274 5f3e 8274 5f3e 8274 5f3e
000000b0: 8274 5f3e 8274 5f3e 8274 5f3e 8274 5f3e
000000c0: 8274 5f3e 8274 5f3e 8274 5f3e 8274 5f3e
000000d0: 8274 5f3e 8274 5f3e 8274 5f3e 8274 5f3e
000000e0: 8274 5f3e 8274 5f3e 8274 5f3e 8274 5f3e
000000f0: 8274 5f3e 8274 5f3e 8274 5f3e 8274 5f3e
00000100: 8274 5f3e 0000 0000 8274 5f3e 8274 5f3e
00000110: 8274 5f3e 8274 5f3e 8274 5f3e 8274 5f3e
00000120: 8274 5f3e 8274 5f3e 8274 5f3e 8274 5f3e
00000130: 8274 5f3e 8274 5f3e 8274 5f3e 8274 5f3e
00000140: 8274 5f3e 8274 5f3e 8274 5f3e 8274 5f3e
00000150: 8274 5f3e 8274 5f3e 8274 5f3e 8274 5f3e
00000160: 8274 5f3e 8274 5f3e 8274 5f3e 8274 5f3e
00000170: 8274 5f3e 8274 5f3e 8274 5f3e 8274 5f3e
00000180: 8274 5f3e 8274 5f3e 8274 5f3e 8274 5f3e
00000190: 8274 5f3e 8274 5f3e 8274 5f3e 8274 5f3e
000001a0: 8274 5f3e 8274 5f3e 8274 5f3e 8274 5f3e
000001b0: 8274 5f3e 8274 5f3e 8274 5f3e 8274 5f3e
000001c0: 8274 5f3e 8274 5f3e 8274 5f3e 8274 5f3e
000001d0: 8274 5f3e 8274 5f3e 8274 5f3e 8274 5f3e
000001e0: 8274 5f3e 8274 5f3e 8274 5f3e 8274 5f3e
000001f0: 8274 5f3e 8274 5f3e 8274 5f3e 8274 5f3e
00000200: 8274 5f3e 8274 5f3e 0000 0000 8274 5f3e
00000210: 8274 5f3e 8274 5f3e 8274 5f3e 8274 5f3e
00000220: 8274 5f3e 8274 5f3e 8274 5f3e 8274 5f3e
00000230: 8274 5f3e 8274 5f3e 8274 5f3e 8274 5f3e
00000240: 8274 5f3e 8274 5f3e 8274 5f3e 8274 5f3e
00000250: 8274 5f3e 8274 5f3e 8274 5f3e 8274 5f3e
00000260: 8274 5f3e 8274 5f3e 8274 5f3e 8274 5f3e
00000270: 8274 5f3e 8274 5f3e 8274 5f3e 8274 5f3e
00000280: 8274 5f3e 8274 5f3e 8274 5f3e 8274 5f3e
00000290: 8274 5f3e 8274 5f3e 8274 5f3e 8274 5f3e
000002a0: 8274 5f3e 8274 5f3e 8274 5f3e 8274 5f3e
000002b0: 8274 5f3e 8274 5f3e 8274 5f3e 8274 5f3e
000002c0: 8274 5f3e 8274 5f3e 8274 5f3e 8274 5f3e
000002d0: 8274 5f3e 8274 5f3e 8274 5f3e 8274 5f3e
000002e0: 8274 5f3e 8274 5f3e 8274 5f3e 8274 5f3e
000002f0: 8274 5f3e 8274 5f3e 8274 5f3e 8274 5f3e
00000300: 8274 5f3e 8274 5f3e 8274 5f3e 0000 0000
00000310: 8274 5f3e 8274 5f3e 8274 5f3e 8274 5f3e
00000320: 8274 5f3e 8274 5f3e 8274 5f3e 8274 5f3e
00000330: 8274 5f3e 8274 5f3e 8274 5f3e 8274 5f3e
00000340: 8274 5f3e 8274 5f3e 8274 5f3e 8274 5f3e
00000350: 8274 5f3e 8274 5f3e 8274 5f3e 8274 5f3e
00000360: 8274 5f3e 8274 5f3e 8274 5f3e 8274 5f3e
00000370: 8274 5f3e 8274 5f3e 8274 5f3e 8274 5f3e
00000380: 8274 5f3e 8274 5f3e 8274 5f3e 8274 5f3e
00000390: 8274 5f3e 8274 5f3e 8274 5f3e 8274 5f3e
000003a0: 8274 5f3e 8274 5f3e 8274 5f3e 8274 5f3e
000003b0: 8274 5f3e 8274 5f3e 8274 5f3e 8274 5f3e
000003c0: 8274 5f3e 8274 5f3e 8274 5f3e 8274 5f3e
000003d0: 8274 5f3e 8274 5f3e 8274 5f3e 8274 5f3e
000003e0: 8274 5f3e 8274 5f3e 8274 5f3e 8274 5f3e
000003f0: 8274 5f3e 8274 5f3e 8274 5f3e 8274 5f3e
0.0 0.21821788 0.21821788 0.21821788 0.21821788 0.21821788 0.21821788 0.21821788
0.21821788 0.21821788 0.21821788 0.21821788 0.21821788 0.21821788 0.21821788 0.21821788
0.21821788 0.21821788 0.21821788 0.21821788 0.21821788 0.21821788 0.21821788 0.21821788
0.21821788 0.21821788 0.21821788 0.21821788 0.21821788 0.21821788 0.21821788 0.21821788
0.21821788 0.21821788 0.21821788 0.21821788 0.21821788 0.21821788 0.21821788 0.21821788
0.21821788 0.21821788 0.21821788 0.21821788 0.21821788 0.21821788 0.21821788 0.21821788
0.21821788 0.21821788 0.21821788 0.21821788 0.21821788 0.21821788 0.21821788 0.21821788
0.21821788 0.21821788 0.21821788 0.21821788 0.21821788 0.21821788 0.21821788 0.21821788
0.21821788 0.0 0.21821788 0.21821788 0.21821788 0.21821788 0.21821788 0.21821788
0.21821788 0.21821788 0.21821788 0.21821788 0.21821788 0.21821788 0.21821788 0.21821788
0.21821788 0.21821788 0.21821788 0.21821788 0.21821788 0.21821788 0.21821788 0.21821788
0.21821788 0.21821788 0.21821788 0.21821788 0.21821788 0.21821788 0.21821788 0.21821788
0.21821788 0.21821788 0.21821788 0.21821788 0.21821788 0.21821788 0.21821788 0.21821788
0.21821788 0.21821788 0.21821788 0.21821788 0.21821788 0.21821788 0.21821788 0.21821788
0.21821788 0.21821788 0.21821788 0.21821788 0.21821788 0.21821788 0.21821788 0.21821788
0.21821788 0.21821788 0.21821788 0.21821788 0.21821788 0.21821788 0.21821788 0.21821788
0.21821788 0.21821788 0.0 0.21821788 0.21821788 0.21821788 0.21821788 0.21821788
0.21821788 0.21821788 0.21821788 0.21821788 0.21821788 0.21821788 0.21821788 0.21821788
0.21821788 0.21821788 0.21821788 0.21821788 0.21821788 0.21821788 0.21821788 0.21821788
0.21821788 0.21821788 0.21821788 0.21821788 0.21821788 0.21821788 0.21821788 0.21821788
0.21821788 0.21821788 0.21821788 0.21821788 0.21821788 0.21821788 0.21821788 0.21821788
0.21821788 0.21821788 0.21821788 0.21821788 0.21821788 0.21821788 0.21821788 0.21821788
0.21821788 0.21821788 0.21821788 0.21821788 0.21821788 0.21821788 0.21821788 0.21821788
0.21821788 0.21821788 0.21821788 0.21821788 0.21821788 0.21821788 0.21821788 0.21821788
0.21821788 0.21821788 0.21821788 0.0 0.21821788 0.21821788 0.21821788 0.21821788
0.21821788 0.21821788 0.21821788 0.21821788 0.21821788 0.21821788 0.21821788 0.21821788
0.21821788 0.21821788 0.21821788 0.21821788 0.21821788 0.21821788 0.21821788 0.21821788
0.21821788 0.21821788 0.21821788 0.21821788 0.21821788 0.21821788 0.21821788 0.21821788
0.21821788 0.21821788 0.21821788 0.21821788 0.21821788 0.21821788 0.21821788 0.21821788
0.21821788 0.21821788 0.21821788 0.21821788 0.21821788 0.21821788 0.21821788 0.21821788
0.21821788 0.21821788 0.21821788 0.21821788 0.21821788 0.21821788 0.21821788 0.21821788
0.21821788 0.21821788 0.21821788 0.21821788 0.21821788 0.21821788 0.21821788 0.21821788
