model.onnx (onnx, 785834 bytes, 116 tensors)

model/encoder_3/self_attention_2/dense_9/Tensordot/ReadVariableOp:0 f4 [64, 21]
000000 2b 7d 58 3d 27 ad 18 bd 69 5c 1c be bc 91 9a bd
       0.052853744 -0.037274506 -0.15269627 -0.07547328
000010 2b 3f 47 be 08 42 52 3d b3 5b 3e be c7 4a 4b be
       -0.1945769 0.051332504 -0.18589668 -0.19852744
000020 c3 29 9c bd be ea c0 3d cc 89 29 be 48 24 fd 3d
       -0.07625153 0.094197735 -0.16556472 0.12360436
000030 1a c2 35 3e 32 e9 13 3e fb 74 ef 3d 29 73 15 3e
       0.17749825 0.14444426 0.11692234 0.14594711
000040 c9 64 42 be 64 b2 1a 3e 09 d5 26 3e 05 3c 88 be
       -0.18983759 0.15107113 0.16292204 -0.2660829
000050 97 8f 04 3e f0 61 78 3e 4c 36 ac bd 33 27 4d 3e
       0.129454 0.2425611 -0.08408794 0.20034485
000060 82 da 52 be 7a d9 c5 3d 0c 54 5e 3e ac 34 06 3e
       -0.20591167 0.09660621 0.21711749 0.1310603
000070 d9 8d 2d 3d aa ac e1 3d e5 ad 88 bc 44 9e 29 3e
       0.042371605 0.11019261 -0.016684482 0.1656428
000080 83 5d 26 3d a1 bd 8f bd f9 e2 80 be 8b 66 2f 3e
       0.040616523 -0.07018591 -0.25173166 0.17128961
000090 32 5f 9f bd 16 b7 0e be 1b a0 b4 3c bb 37 8c 3d
       -0.07781829 -0.13937029 0.022049 0.06846567
0000a0 12 2a 57 bd 4e e1 2b 3e 0d d7 4d 3e f4 1d 61 be
       -0.052530356 0.16785166 0.20101567 -0.21984082
0000b0 3e c5 74 3e de 81 1c be 75 ad 64 3e 23 47 8f bc
       0.23903367 -0.15283915 0.22331794 -0.017489975
0000c0 54 16 15 bd 4b f0 8e bc a2 ea 96 3d 70 de 37 be
       -0.036398247 -0.017448565 0.073689714 -0.17955947
0000d0 64 16 69 be ff 88 43 3e 9d 63 0f be 6e ad 72 bd
       -0.22762448 0.19095229 -0.14002843 -0.059247427
0000e0 09 06 07 be 2e e7 0e be 6f c4 a2 3d 4a 28 a2 3b
       -0.13185896 -0.13955376 0.07947623 0.0049486505
0000f0 34 f3 23 3d 5b 1b 6d be 89 c2 3a 3e f3 dc eb bd
       0.04002686 -0.23154967 0.18238272 -0.11516752
000100 97 a5 a6 3d 5f da 20 bd 7d 8d f7 3d a7 15 46 be
       0.081370525 -0.039270755 0.120875336 -0.19344197
000110 c3 f8 10 be 94 60 ae bc 54 3f b7 bb b0 95 bb 3d
       -0.14157395 -0.021286286 -0.005592266 0.0915941
000120 f1 69 89 bd ef 8b 2c 3e 4b 8d 32 be 49 7c 63 3e
       -0.0670966 0.16850255 -0.17436711 0.2221538
000130 88 97 18 bd 4f b9 ad bd e4 a5 f0 3d c7 6b e2 bd
       -0.037253886 -0.084826104 0.11750391 -0.11055713
000140 a7 47 4b 3d 51 c1 9c 3d 62 85 22 3e 20 8f fe bc
       0.04962888 0.0765406 0.15871194 -0.031074107
000150 bf be f6 bd 1c 29 18 3e 93 bb 5b be bd b3 15 3e
       -0.12048101 0.14859432 -0.21458273 0.14619346
000160 1d 8b bb bc 3f 31 30 3e 80 9b d9 bd ce 98 1c bd
       -0.022893483 0.17206286 -0.106253624 -0.038231663
000170 9b a6 42 bd 46 7a 85 3e ab 5b 20 3a bc 68 0e be
       -0.04752217 0.2606985 0.0006117175 -0.1390714
000180 12 67 df bc 9e 46 ce bd 07 c3 66 be 6c e7 1c 3e
       -0.027270827 -0.10072063 -0.22535335 0.15322655
000190 fd a8 ce bd d3 dd cf bd fb 73 ed 3d 45 6a 76 3d
       -0.10090826 -0.101497315 0.11594387 0.06015994
0001a0 e5 00 f9 bb 92 6c 70 bc 86 8a 03 bd f4 07 64 3e
       -0.0075989836 -0.014674323 -0.032114528 0.22268659
0001b0 d9 cf b8 bd fa 64 1e be 60 ad fc bc b2 c0 4c be
       -0.09024019 -0.15468207 -0.03084439 -0.19995382
0001c0 d3 8f ca 3d f7 61 c5 bc 41 3a 44 3c cf b6 c2 bd
       0.098907135 -0.024094565 0.011976779 -0.09507524
0001d0 3c 6d 2d be 8d 56 aa bb 09 39 62 bd 9c d7 25 3e
       -0.16936201 -0.005198306 -0.055230174 0.1619553
0001e0 90 43 11 bd e4 be 2f 3d 62 11 5f be 94 83 4c be
       -0.035464823 0.042906657 -0.21783975 -0.19972068
0001f0 81 60 eb 3d c3 19 c4 bd 1b 98 03 3e 42 d3 14 be
       0.11493016 -0.09575226 0.12850992 -0.14533713
000200 d4 f0 fb bd 37 05 50 3e 35 be 63 be 29 30 2a bc
       -0.12301794 0.2031449 -0.22240527 -0.010387459
000210 63 38 57 be e0 31 60 be 40 67 4e 3e 4d 7b b1 3c
       -0.21017604 -0.21894026 0.20156574 0.02166524
000220 f3 36 26 3e ab f3 49 be e6 65 4e 3e 8d d6 39 3e
       0.16231899 -0.19721858 0.20156059 0.18148251
000230 5f 42 b1 bd f2 df cd bc ad 64 5e 3e 0a 1f 60 bd
       -0.086552374 -0.0251312 0.21718092 -0.0547171
000240 4a 40 87 be 5b 36 17 3e b2 93 b8 3b 3f 9c 02 3e
       -0.26416236 0.14766829 0.005632841 0.12754916
000250 65 9e 48 3e 6d 9c 3d bc 14 d0 c8 bc d0 94 73 3e
       0.19591673 -0.011572939 -0.024513282 0.23787236
000260 b9 ed 10 be f2 5e 2a bd ba 85 f7 3d 69 be 6d be
       -0.14153184 -0.041594453 0.12086053 -0.23217167
000270 e7 a3 cd bd 5b 26 3d be bb 33 43 be 50 ab 80 bc
       -0.100410275 -0.18471663 -0.19062702 -0.015706688
000280 16 42 23 be 14 08 96 be f3 96 4a be 94 82 39 be
       -0.15943179 -0.29303038 -0.19784145 -0.18116218
000290 6a d8 bc 3b cc d1 50 3e b3 41 89 bd ab 9f 19 be
       0.0057631033 0.20392531 -0.06701984 -0.15002315
0002a0 40 10 2a 3e a1 49 92 bd 9c 31 2e 3e 40 e5 15 3e
       0.16607761 -0.0714295 0.17011112 0.14638233
0002b0 4e 03 ca bd 76 d7 09 3e c0 c8 f9 3c 49 e9 7c be
       -0.098639116 0.13461098 0.030491233 -0.24698366
0002c0 72 22 15 3e 57 5a c6 bd 79 fc c1 bd 7c 21 81 be
       0.14563921 -0.096852 -0.094719835 -0.2522086
0002d0 c2 ef 54 bd 52 a0 d4 3d d5 73 e8 3d 5e bb df bd
       -0.051986463 0.10382141 0.11350218 -0.10924409
0002e0 b2 04 4b be c1 4e 56 bd fd 1f 1f 3d 47 e7 af 3d
       -0.1982601 -0.0523212 0.038848866 0.085890345
0002f0 40 ee 0c be 6f fc 16 be c3 63 82 3e a2 a1 11 bb
       -0.1376276 -0.14744733 0.25466737 -0.0022221585
000300 ae 85 32 3d c7 21 14 be ea ea 24 3d 89 59 cd 3d
       0.043584518 -0.1446601 0.040263094 0.10026843
000310 78 b4 8a bd 34 db 98 bd 9b 71 c8 bd 97 c7 36 be
       -0.06772703 -0.07463685 -0.097872935 -0.17849575
000320 27 55 65 3d aa 52 26 3e af 6b 05 3e e4 b5 22 be
       0.05598941 0.16242471 0.1302936 -0.15889698
000330 21 17 55 3d 43 a5 26 39 51 cf ca 3d fd 2d 71 3e
       0.05202401 0.00015892558 0.09902824 0.235527
000340 74 f7 1a be 9f b1 b8 3d c7 3d da bd f3 68 fa 3d
       -0.15133458 0.090182535 -0.10656314 0.12227049
000350 a0 93 4d be d6 c6 6d 3d 47 f5 2f 3e f4 0f 86 be
       -0.20075846 0.058050953 0.1718341 -0.26184046
000360 ff 72 17 be e8 4a 12 be da 20 e4 3c 16 28 95 bd
       -0.14789961 -0.14286387 0.027847696 -0.072830364
000370 03 ee d9 bc 23 bf 1e be f7 09 20 be 7f b3 58 3e
       -0.02660275 -0.155026 -0.15628801 0.21162222
000380 7a 34 3b be b3 00 38 3e 2c 5c 1b be 2c 43 bf bc
       -0.18281737 0.17969017 -0.1517188 -0.02334746
000390 c7 2f 5f 3e cc 66 5e be 9c 8f 5a 3e cd a5 16 3e
       0.2179557 -0.21718901 0.21343845 0.14711685
0003a0 99 d2 0d 3d e7 33 60 be b8 a3 7b be a8 42 13 be
       0.03462467 -0.21894799 -0.24574172 -0.14380896
0003b0 50 f9 ee 3d b7 50 5c bd aa 47 34 be bb f4 a6 3d
       0.11668646 -0.053787913 -0.17605463 0.081521474
0003c0 e1 78 00 3c 05 07 ae 3d 49 5d ad bd 72 1f 1e 3e
       0.00784132 0.084974326 -0.08465058 0.15441683
0003d0 d6 a2 6f 3e bc ac 3d 3e 95 79 68 3e c8 4e 39 3d
       0.2340196 0.18522924 0.2270263 0.045241147
0003e0 df f2 19 be 4a 21 49 3e 71 60 c4 bd f6 f4 98 bc
       -0.15034054 0.19641605 -0.09588707 -0.018671494
0003f0 ea 85 00 be aa 5d a6 3d e7 98 3a be 83 5f 71 3e
       -0.12551084 0.08123334 -0.1822239 0.23571591

model/encoder_3/self_attention_2/dense_9/BiasAdd/ReadVariableOp:0 f4 [21]
000000 3b 2c 65 3b 5f 76 82 bc 26 b9 41 bc 7c 5d 81 bc
       0.003496899 -0.015925584 -0.011823928 -0.015791647
000010 bc 60 02 3c cc 11 c1 bc 4f 66 d3 3b 43 5b 92 bb
       0.007957634 -0.023568057 0.006451405 -0.0044664457
000020 c2 3d b7 3b 16 13 5f bc f4 01 b4 3b 1a 4a 20 3b
       0.005592079 -0.01361539 0.005493397 0.002445823
000030 b8 73 df bc 28 c6 2d 3c 07 1d 30 bd 07 77 a4 3c
       -0.027276859 0.010606326 -0.042996433 0.020076288
000040 59 9f 6d ba ed cf 94 3b 17 2e 2d bb 3b ff 6f bb
       -0.0009064577 0.0045413882 -0.0026425177 -0.0036620635
000050 9b ea 21 bc
       -0.009882594

model/encoder_3/self_attention_2/dense_11/Tensordot/ReadVariableOp:0 f4 [64, 21]
000000 28 b6 5f bd 81 a9 71 3e d1 8e 55 be dc 4e 0d 3e
       -0.054617077 0.23599817 -0.20855261 0.13799614
000010 d3 33 14 3e 7b f1 34 be 9e 32 e3 bd 01 27 83 3c
       0.14472894 -0.17670242 -0.11093639 0.01600981
000020 13 d9 ec bd 63 04 74 3e 17 f9 e5 3d dd d1 66 3e
       -0.11564841 0.23829798 0.11229151 0.22540994
000030 91 88 57 3e ec ad 6b 3c 8d 88 5e 3d 0b 42 4d 3e
       0.2104819 0.014384728 0.054329444 0.20044725
000040 fa 10 70 3e 8b de 4a 3e 68 ef 6c be 83 15 71 bd
       0.23443976 0.19811456 -0.23138201 -0.058858406
000050 a7 47 ad bd 45 ce c7 bd 7e 95 7d be c9 0a 2a be
       -0.08460932 -0.0975614 -0.24764058 -0.16605677
000060 06 72 1f 3c f2 4f 88 bd 16 35 45 3a 60 89 f5 bd
       0.009731775 -0.06655873 0.0007522864 -0.11989093
000070 70 f6 d4 3c c9 91 2f bc 94 f5 23 bd c7 7a 80 bd
       0.025996417 -0.01071591 -0.040029123 -0.06273418
000080 1a 8b 1b 3e 98 dc 2c be f2 1c 39 be 11 20 c2 3d
       0.15189782 -0.16881025 -0.18077448 0.094787724
000090 d3 bb 65 3e d5 d4 2d 3e d1 01 82 bd ca bf 8d 3d
       0.2243493 0.1697572 -0.06348003 0.069213465
0000a0 b7 8f b7 3d 39 48 28 be 2e db f2 3d 31 c4 1a 3e
       0.08962958 -0.16433801 0.118582115 0.15113904
0000b0 61 41 9d bd 74 3e 14 bd ea 43 6d 3e bb 38 75 bd
       -0.07678486 -0.036192372 0.23170438 -0.059868556
0000c0 06 7f 04 3e 70 23 f0 3d 16 c8 60 3e 44 cc 08 3e
       0.1293908 0.11725509 0.21951327 0.13359171
0000d0 33 7d 0b 3e f4 b4 42 be 24 2a 50 be 24 4c 38 3c
       0.13621978 -0.1901434 -0.20328575 0.011248622
0000e0 0d 99 9f bd d0 b3 e8 bc 5d f2 49 3e c0 b8 36 3d
       -0.07792864 -0.028406054 0.1972136 0.044609785
0000f0 f0 a2 56 3e f1 40 d5 3d 02 6e 3c 3e be f8 7a bc
       0.20960593 0.10412777 0.1840134 -0.015318094
000100 c2 e7 4c be 82 a0 b7 3d b5 bc 63 bd cf a0 20 3e
       -0.20010284 0.08966161 -0.055599887 0.15686344
000110 f3 6e 7a be 49 2b 13 3e 41 69 ff 3d e4 ca 52 3e
       -0.24456386 0.1437198 0.124712475 0.20585209
000120 b4 3c 13 be 23 b2 01 3d 43 73 fa bc a8 27 64 be
       -0.14378625 0.031664025 -0.03057254 -0.22280753
000130 a9 35 e0 bc 1b 71 fa bd 80 d1 65 be c8 d0 89 3e
       -0.027369337 -0.122286044 -0.22443199 0.269171
000140 e2 05 c5 bc ae 49 de 3d 64 3c 07 3b ba 6e 6e 3e
       -0.024050657 0.10853897 0.002063536 0.23284426
000150 80 ac 8a 3e 0f c7 2b be 10 e3 43 3e 70 ab 0a 3e
       0.27084732 -0.16775154 0.19129586 0.1354196
000160 14 72 09 bd 5f 19 79 be d0 ee 3b be 01 7b 24 be
       -0.03355606 -0.24326085 -0.18352818 -0.16062547
000170 a3 25 f0 3c 71 6f f9 3d b6 fe e2 3c 41 1c 72 3e
       0.029314822 0.12179459 0.027709346 0.2364359
000180 fd 0b 3d 3e ff 42 57 bd b4 cc 8e 3d ed 61 0b 3e
       0.18461604 -0.052554127 0.06972638 0.13611574
000190 a6 2b 7a be 52 75 a0 3c da 33 6f 3d c4 d3 71 3a
       -0.24430713 0.019587193 0.05839906 0.0009224976
0001a0 52 28 1b be 37 fc 26 bd fa b6 24 be 84 46 47 be
       -0.151521 -0.040767875 -0.16085425 -0.19460493
0001b0 9f 92 23 be 3c 13 d2 bd 93 e8 85 3e 25 11 76 3b
       -0.159739 -0.10257575 0.26154003 0.003754684
0001c0 74 d9 27 3e 87 17 1f be 9a bb 56 be 3a 73 10 be
       0.16391546 -0.15536319 -0.20970002 -0.14106455
0001d0 d9 7a 88 3d 8a aa 3c 3e b1 37 ba 3c 30 96 8c 3e
       0.06664056 0.1842443 0.022731634 0.27458334
0001e0 44 c8 68 3e ba 27 bc bd 31 92 19 3e 9a 52 94 3d
       0.22732645 -0.09187265 0.14997174 0.072423175
0001f0 04 bf 21 bc 41 68 df 3d e3 c3 9c 3d 7a ea 80 3d
       -0.009872202 0.10908557 0.0765455 0.06294723
000200 e7 ea ca 3d a4 0f 89 bd a8 f2 89 be 4d 75 02 3a
       0.09908085 -0.06692436 -0.26942945 0.00049765856
000210 1c 82 5a 3e bd b8 64 3e 87 0c f4 ba df 84 93 bd
       0.21338695 0.22336097 -0.0018619456 -0.072030775
000220 e2 c2 6e 3e 07 01 1f 3e cb 98 71 3e 95 ba b2 3c
       0.2331653 0.15527736 0.23593442 0.021817485
000230 47 e5 46 be c3 df 03 3d 23 95 82 3d de 31 55 be
       -0.194234 0.032195818 0.06376102 -0.20819804
000240 df 1a 42 be bf d8 64 3e 76 0d 84 3d 7d 75 be 3d
       -0.18955563 0.22348307 0.0644788 0.09299753
000250 6f 54 27 bd 5a 33 a5 3d 6f fa 1c 3e 92 58 0d be
       -0.040852007 0.08066435 0.15329908 -0.13803318
000260 9d 90 3b 3e 49 d5 78 be 05 fc 19 3e 3e c5 62 3e
       0.18316884 -0.24300112 0.15037544 0.22145554
000270 38 48 10 be 02 c5 29 3d cd 73 45 3e 54 a6 21 3d
       -0.1409005 0.041447647 0.19282456 0.039465263
000280 c1 f2 48 be 28 81 a7 3d 76 ed 2b bd 6a 2f 81 3e
       -0.19623853 0.081789315 -0.041974507 0.25231487
000290 6c 30 7c bd 41 56 11 be 19 52 44 3e fd 82 8c bc
       -0.061569616 -0.1419306 0.19171943 -0.017152304
0002a0 53 0b c3 3d 8a 0b 65 3e 4e 52 ee bc 43 39 72 3d
       0.09523644 0.22367683 -0.02909198 0.05913664
0002b0 f8 13 68 bb dc 34 07 bd 03 76 09 be 98 9e 6e be
       -0.0035412293 -0.033009395 -0.13423924 -0.23302686
0002c0 91 b6 56 3e 59 68 a5 3c 7c d9 81 be 8b ba 3e 3e
       0.20968081 0.020191358 -0.2536124 0.18625848
0002d0 b9 d3 6e be fc 84 29 3e fc 48 60 3e d1 e3 52 bb
       -0.23322953 0.16554636 0.21902841 -0.0032179246
0002e0 3e e2 e4 3d 50 37 01 3e f1 69 33 3d 89 cd 55 3e
       0.11175965 0.12618756 0.043802205 0.20879187
0002f0 d1 5a 87 bd de 4d 40 3e 6b f7 ae bd 36 ee ee 3d
       -0.06609119 0.18779704 -0.08543285 0.11666529
000300 4a dc 09 3e d6 0e 5d be e2 26 56 3d c9 c9 51 be
       0.1346294 -0.2158769 0.052283175 -0.20487131
000310 43 8e d6 3c 08 cd 46 3e 98 67 21 bd 89 20 0d 3d
       0.026190883 0.1941415 -0.039405435 0.034454856
000320 ed 8b 3e 3e d9 a6 10 be 12 5d 20 bd f8 e2 7f 3e
       0.18608065 -0.14126147 -0.03915126 0.24988925
000330 cb f4 ea bd 40 26 24 bc 33 65 53 be 6a bd e4 bd
       -0.11472472 -0.010018885 -0.20644073 -0.1116894
000340 7e 78 7a 3d 86 04 34 be 05 59 16 3e 63 39 a4 bd
       0.061150067 -0.1757985 0.14682396 -0.08018758
000350 ad 7c d5 3d 54 70 f4 bd fe b1 5c 3e b9 e5 83 be
       0.10424171 -0.119354874 0.21552274 -0.25761202
000360 0b 86 ee 3d f0 40 20 be 4d d4 60 be 49 f8 7b 3e
       0.116466604 -0.15649772 -0.21955986 0.24606432
000370 fb 3a 89 be 84 e9 54 3e 86 95 18 3d 98 09 f1 3b
       -0.2680281 0.20792204 0.03725197 0.00735588
000380 52 7a 46 3e be e5 52 3e b6 46 00 3e 68 6c 9c 3d
       0.19382599 0.20595452 0.12526974 0.07637864
000390 cf d4 32 be 4b cb 71 3e b9 01 7d be 46 9f 30 3e
       -0.17463993 0.23612706 -0.24707688 0.17248258
0003a0 8f 33 c1 bb ec 8b f8 bc 03 c9 95 bd d9 91 23 be
       -0.005896039 -0.030340157 -0.073137306 -0.15973605
0003b0 06 29 dc bd 49 b2 08 3e 64 bd 34 3e 8e 2f dc 3c
       -0.10750012 0.1334926 0.17650372 0.026878145
0003c0 ac 27 11 3d 9d ea cc 3d 10 eb 07 3e 34 ee 25 3e
       0.035438225 0.100056864 0.13273263 0.16204149
0003d0 ef e3 0b 3d cc 73 83 3c da 54 61 3e 40 bd 3a 3e
       0.03415292 0.016046427 0.22005025 0.18236256
0003e0 9b 6c 2d be 62 fa 11 be 35 36 4c be c9 32 a4 3c
       -0.16935961 -0.1425567 -0.19942553 0.020043747
0003f0 2f 56 f4 3d e2 a9 83 be 61 aa 5c be 2f 8b 81 3e
       0.11930501 -0.25715548 -0.2154937 0.253015

model/encoder_3/self_attention_2/dense_11/BiasAdd/ReadVariableOp:0 f4 [21]
000000 00 a9 c4 bb ed e5 03 3b a6 f9 a8 3c 6d b0 b6 bb
       -0.0060015917 0.002012606 0.020626854 -0.005575231
000010 35 02 b9 ba 1a 02 e4 ba a3 05 3d bb de 63 b3 bb
       -0.0014115038 -0.0017395646 -0.002884247 -0.0054745516
000020 bf 1a ec 3a b6 e6 20 bb d9 d2 7a 3a 42 0f ac 3a
       0.0018013342 -0.0024551577 0.0009568162 0.0013127106
000030 6b a8 bb bb 37 29 81 bb dc 06 76 b9 88 fb ac 3a
       -0.005726864 -0.003941681 -0.00023462943 0.0013197521
000040 38 b9 8d 3b 1e 22 e9 3a 86 a5 82 3b a6 80 4f bc
       0.0043250583 0.0017786657 0.003987017 -0.0126649495
000050 2e c5 18 bb
       -0.0023310888

model/encoder_3/self_attention_2/dense_10/Tensordot/ReadVariableOp:0 f4 [64, 21]
000000 72 cd a2 3d fd a4 49 be c6 f5 29 be e7 50 ba 3d
       0.07949342 -0.19691844 -0.16597661 0.09097462
000010 ed e4 1e be 89 e0 26 3e a6 a3 f1 3d 8a 7d 5a 3e
       -0.15517016 0.16296591 0.117987916 0.21336952
000020 a8 5c 4a 3e 13 c1 6f 3c 2e 79 4c 3e 73 45 54 3e
       0.19761908 0.014633435 0.19968101 0.20729618
000030 aa 5f 73 3e 2a bc 10 3e ba 49 41 bd 08 43 08 3e
       0.23766962 0.14134279 -0.04718945 0.1330682
000040 c6 bb bd 3d a6 79 17 3e 48 1b a9 39 23 20 8f 3d
       0.092643306 0.14792499 0.00032254518 0.069885515
000050 cd de 31 3e 6b db 5f be 4e 9c fa 3d 86 1b 7f be
       0.17370148 -0.21861045 0.12236844 -0.24912843
000060 6a 03 9a bd 57 1e 73 bc 1b f7 fb 3d 06 33 21 3e
       -0.075201824 -0.014838777 0.12302991 0.1574212
000070 d8 93 0e 3e d6 5e 54 3e b9 11 6b bd 37 2f 2d be
       0.13923585 0.20739302 -0.05738995 -0.16912542
000080 a0 e4 58 3e 70 ae 43 3e f8 b6 c7 bd 3d 30 68 be
       0.21180964 0.19109511 -0.097516954 -0.22674651
000090 3c 46 16 be 34 ed 89 3d b6 fb e9 3d d6 21 7a 3d
       -0.1467523 0.06734696 0.11424963 0.061067425
0000a0 79 51 01 be ed 32 2f 3e e5 fb 85 3d 45 ec 6d 3e
       -0.12628736 0.1710927 0.06542186 0.23234661
0000b0 73 7d 76 3e b9 68 23 3e 0d 97 c5 3c d9 9e 07 be
       0.24071293 0.15957917 0.024119878 -0.1324419
0000c0 d3 2c e8 bc aa 0a 85 be 1e cb 3e 3e 2c ea 5e be
       -0.028341686 -0.259847 0.1863217 -0.21769017
0000d0 93 64 7b 3e 31 c7 43 3d 25 74 8e 3c c1 47 6c be
       0.24550085 0.047797386 0.017389366 -0.23074247
0000e0 18 2c 00 3e 07 b6 57 be f0 39 1c be 8a a4 d4 bd
       0.1251682 -0.21065532 -0.15256476 -0.10382946
0000f0 d9 59 ee bd 4c 7a 48 bb 09 f4 38 be 54 96 84 3e
       -0.11638231 -0.0030590473 -0.18061842 0.2589594
000100 fa 7f 63 be 51 fc 07 be e5 07 70 3d c4 62 2c 3e
       -0.22216788 -0.13279845 0.05860128 0.16834551
000110 27 88 5f 3d 9e d1 0b 3e 2e e8 8a bc ca 4c e4 3d
       0.054573204 0.13654181 -0.016956415 0.11147459
000120 9d 59 8e bd c7 b9 7d 3e 98 b8 27 bd 49 e6 22 be
       -0.06950686 0.247779 -0.040947527 -0.1590816
000130 fb ef 19 be c8 3d 78 3c 87 6b 9e bc bb a2 3b bd
       -0.15032952 0.015151449 -0.019338382 -0.04580949
000140 b5 39 6e 3e ae dc 8c be 35 85 80 3d 6a 27 23 3d
       0.23264201 -0.27512115 0.06275407 0.03983251
000150 fa 0e f4 3c 0c 7c e0 bd 5f d7 04 3e 61 66 33 3e
       0.029792298 -0.1096116 0.12972783 0.17519523
000160 1a 7f f4 bd 1c 89 3e 3e ae 93 98 bd de f7 cd 3d
       -0.11938305 0.1860699 -0.07450043 0.100570425
000170 18 e8 04 3e 76 d8 0a 3e 1c 0c 6e bc 4d 56 19 3a
       0.12979162 0.13559136 -0.014529254 0.00058493466
000180 ea 0c 9d bc 03 1f dc 3d 8a 3e 1f 3d 5b ff 71 3d
       -0.019171197 0.107481025 0.038878 0.059081417
000190 a6 8f 5c 3e 37 cf d2 bd 55 41 7c be c3 71 f9 3d
       0.21539173 -0.10293429 -0.24634297 0.121799015
0001a0 0b 5a 70 3e fb e1 4c 3e 14 ec 6c bd 37 7f 57 be
       0.23471849 0.2000808 -0.05784233 -0.21044622
0001b0 3a 1f 82 3e 22 84 a1 bd 2d 83 5e 3e 2d d5 6f 3e
       0.2541445 -0.078865305 0.21729727 0.23421164
0001c0 0f 24 27 3e 53 70 35 3e 06 ef 8e 3e 7d f1 ff bd
       0.16322349 0.1771863 0.27916735 -0.12497232
0001d0 e8 28 e2 bd 82 e0 6c 3e 60 75 cc 3c 55 d4 59 3e
       -0.110429585 0.23132518 0.024958313 0.21272404
0001e0 9a 43 67 be 64 f9 37 3d 52 79 1e 3e bc 01 3a 3e
       -0.22584382 0.04491557 0.15475968 0.18164724
0001f0 7f 66 04 3c 81 69 17 bd f8 b7 4a 3e e4 80 8a be
       0.008081078 -0.03696585 0.19796741 -0.2705146
000200 ad 32 2b be 5f 67 4f 3e 9f 2d 06 be 2e 7c 60 3c
       -0.1671855 0.20254277 -0.1310334 0.013701482
000210 46 a1 39 3d da 24 83 3e 86 c0 9e bd 36 05 36 be
       0.045319818 0.25614053 -0.07751565 -0.17775425
000220 cc fe 3d 3e 0f 44 d6 3c 1a 75 b5 bd 0b fb 90 3e
       0.18554229 0.0261555 -0.08860226 0.2831653
000230 81 6b dc bd 2c b4 7a be 11 b5 31 be 80 e1 49 be
       -0.10762692 -0.24482793 -0.17354228 -0.19714928
000240 de 15 42 be 73 c4 86 3d bd 71 c1 bd bb 6d 85 3d
       -0.18953654 0.065804385 -0.09445522 0.0651507
000250 2e f9 5f be 95 f2 5e be b8 19 18 be e1 bc 59 be
       -0.21872398 -0.21772225 -0.14853561 -0.21263458
000260 1c de fb bd 0f 86 bb 3c 75 f1 12 be f7 94 e5 3d
       -0.122982234 0.022891073 -0.14349921 0.112100534
000270 9b 87 67 be 14 4b 88 be 76 16 b2 bd 10 b8 2b be
       -0.22610323 -0.2661978 -0.0869569 -0.16769433
000280 11 8c 2d be 15 dc 3b be ac fb 88 bd b7 3d 80 3e
       -0.16947962 -0.18345673 -0.066886276 0.25047085
000290 41 57 1b 3d 98 51 42 3e 5d b8 06 be 2e 51 a6 bd
       0.03792501 0.18976438 -0.13156267 -0.081209525
0002a0 1f a4 9b 3d 33 66 52 be be 0b 7f 3e f3 9f e5 3d
       0.07599663 -0.20546798 0.24906823 0.112121485
0002b0 f5 ba 6d bd 67 20 95 3c 13 a2 d0 3b 1a 11 b0 3d
       -0.058039624 0.018203927 0.006366977 0.08597012
0002c0 6a c1 08 3e b6 ac a9 3d ff 55 40 be c8 5e 2b 3e
       0.13355032 0.08284895 -0.18782805 0.16735375
0002d0 2d 34 35 be ce ac 80 be 98 a9 cc bd f4 48 b7 bd
       -0.17695685 -0.2513184 -0.09993285 -0.089494616
0002e0 08 39 b0 bc 88 e8 6d be 58 a7 41 be e3 6b 2c 3d
       -0.02151157 -0.23233235 -0.18911493 0.042095076
0002f0 26 ea bd 3d 2f 1c 00 bd ff bb 1e be 0b ab 24 3e
       0.09273176 -0.031276878 -0.15501402 0.16080873
000300 cc 91 75 be d7 83 38 be 14 ee 13 be 91 0c c6 3d
       -0.23981398 -0.18019043 -0.14446288 0.096703656
000310 ba ed d7 bd 64 5a 75 bd 44 df 8b bd c1 c4 cc bd
       -0.105433896 -0.059900656 -0.06829694 -0.09998465
000320 c3 d3 2d be 6c cc 5b 3e fa c9 29 3c b9 e7 72 3e
       -0.16975312 0.214647 0.010363096 0.23721208
000330 d3 d1 a4 bd b5 59 23 bd 49 c0 33 be 2d 2e 67 3e
       -0.08047833 -0.039880473 -0.1755382 0.22576208
000340 67 37 0c 3e 80 7b 1d bd 20 53 82 3c 4f fa 24 be
       0.1369301 -0.038447857 0.015908778 -0.1611111
000350 f6 26 10 bc e6 b6 0d 3e 08 e9 b6 3d da 7c 1b be
       -0.0087983515 0.13839301 0.08931166 -0.15184346
000360 d1 93 e9 bc 7c 74 5d be d1 02 99 3e bf 8d f2 ba
       -0.028512867 -0.21626467 0.2988496 -0.0018505378
000370 41 cf a2 bd 18 ad 51 3e 52 1e 00 3d 27 27 85 3e
       -0.07949687 0.20476186 0.031278916 0.26006433
000380 20 16 71 3c 8c 9e 62 bb 5d a1 3e be e9 a7 01 be
       0.014714748 -0.0034579365 -0.18616243 -0.12661709
000390 65 ae ad bd 4d d7 17 3e 71 67 85 3d 7d 14 17 3e
       -0.08480529 0.14828224 0.065138705 0.1475391
0003a0 b9 ec a8 3d 3a 99 54 be 86 8e 23 bd 7b 80 6b 3e
       0.08248276 -0.20761576 -0.039930843 0.2299823
0003b0 57 94 55 bd 5f 75 64 3e 8e e7 23 3d 48 0f 67 3e
       -0.05214342 0.22310399 0.04001575 0.22564423
0003c0 a9 7a 90 3e 2b 72 1e 3e 6a 36 92 bd a4 7c 84 be
       0.28218582 0.15473239 -0.07139285 -0.25876343
0003d0 86 28 26 bd 54 59 1c be c9 cb 36 be a5 91 2e 3e
       -0.04056599 -0.15268451 -0.17851175 0.17047746
0003e0 87 aa d1 bd fe 0f 0a 3d 45 c8 1e 3e b1 67 d8 3d
       -0.10237604 0.033706658 0.15506084 0.105666526
0003f0 57 02 a9 bd ce e8 3d be 18 2b 26 be 98 94 17 3e
       -0.082523994 -0.18545839 -0.16227376 0.14802778

model/encoder_3/self_attention_2/dense_10/BiasAdd/ReadVariableOp:0 f4 [21]
000000 61 e1 4f ba 8b b8 1b 38 a9 b8 18 ba 49 d3 84 3a
       -0.00079300074 3.712675e-05 -0.00058258564 0.0010133769
000010 fa 36 8d ba c7 2e a5 ba 7f 75 c5 39 2c ef 74 b8
       -0.001077383 -0.0012602442 0.0003766231 -5.839688e-05
000020 00 68 92 39 a0 32 3d ba d2 f7 4d ba 5b 03 8b ba
       0.00027924776 -0.00072173215 -0.00078570575 -0.0010605858
000030 8a c5 36 3a 2c 9d ae 3a 28 14 5b ba 97 4e 2d 3a
       0.00069721846 0.0013321987 -0.00083571905 0.0006611137
000040 76 d9 30 ba 0e 96 b5 39 4c 12 a0 3a 0f 73 92 3a
       -0.00067462714 0.0003463481 0.0012212484 0.0011173206
000050 ee 1d d7 b9
       -0.00041030295

model/encoder_3/self_attention_1/dense_8/Tensordot/ReadVariableOp:0 f4 [64, 21]
000000 7f bb 25 be a2 0e 0f 3d ee dc 89 3b ba 64 68 3e
       -0.16184805 0.034926064 0.004207245 0.22694674
000010 b6 96 6f be 13 ca a2 bb 15 d9 a4 bd 68 e5 31 be
       -0.23397335 -0.004967937 -0.080492176 -0.17372668
000020 c6 65 3c 3c 66 c8 cc bd 5e 0b 81 3e 81 d7 1c 3e
       0.011498874 -0.099991605 0.25203985 0.15316583
000030 bd 9d f2 bd d3 1d 71 be 14 82 52 3e b7 a4 45 be
       -0.118464924 -0.23546533 0.20557433 -0.19301115
000040 b5 6c 77 3e 93 c1 96 3d 74 2a 40 3e ef 98 65 3e
       0.24162562 0.0736114 0.18766195 0.22421621
000050 c1 6c 9e 3c 11 86 c2 3d 3e de 16 3e 26 91 48 be
       0.019338967 0.094982274 0.14733216 -0.1958662
000060 08 cf 0f 3e 60 da 7e 3d b9 52 4b 3e 74 27 40 3e
       0.1404382 0.062219977 0.19855775 0.1876505
000070 5f 44 82 be 9a ae bc bd 4b de 89 3d 1f 60 4d be
       -0.25442788 -0.0921299 0.06731852 -0.20056199
000080 0a d3 d8 3c d3 a8 85 3e 15 ac ea 3d 21 71 57 3e
       0.026467819 0.26105365 0.11458603 0.21039249
000090 5d c1 be 3d 57 94 4e be ab 3d 0a be 4a 0f 8b bd
       0.09314225 -0.20173775 -0.13500087 -0.067900255
0000a0 56 2b d1 bd 8b 2f 6d 3c 88 91 af bc 22 24 b0 3d
       -0.10213344 0.014476667 -0.0214317 0.08600642
0000b0 ce f8 03 3d cb 21 04 3e 5b cc e3 bd 4a 74 64 3d
       0.0322197 0.12903516 -0.11122962 0.055774964
0000c0 bc b8 76 3e 6a 4f 08 be 16 ce 7b 3e 0e 7e ab bd
       0.24093908 -0.13311544 0.24590334 -0.083736524
0000d0 6d 72 c5 bd d4 d6 ce 3a 6d 70 24 3e c3 00 2a 3d
       -0.096409656 0.0015780577 0.16058512 0.041504633
0000e0 55 4f 18 be 2a 7f 40 be eb 35 18 be fa 82 85 be
       -0.14874013 -0.18798509 -0.14864318 -0.2607649
0000f0 c5 62 ab bc 22 27 61 3e e5 ec 30 3d 3d 13 0b 3e
       -0.02092112 0.21987584 0.04319467 0.13581558
000100 d8 cf 43 3e ba 23 d6 3d 68 3e 2a be 77 9a 68 3d
       0.19122255 0.10456033 -0.16625369 0.056787934
000110 82 51 42 3e cc e0 34 be 89 a9 46 be 29 2e 38 be
       0.18976405 -0.17663878 -0.1940061 -0.17986359
000120 23 14 8a be d5 1e 11 3d ca 81 16 bd 87 8c 2b bd
       -0.26968488 0.035429794 -0.03674487 -0.041882064
000130 1e 40 3e 3e 5f df 0d be 18 99 34 3e 9e af 3d 3e
       0.18579146 -0.1385474 0.17636526 0.18524024
000140 ea af 84 3d 3c fd 0e bd 0c 2d aa 3d 44 9c 10 be
       0.064788654 -0.034909472 0.08309373 -0.1412211
000150 e5 be ae 3c cc 95 b9 bd d8 a2 bf bd ac bd c4 3c
       0.02133126 -0.090617746 -0.09357232 0.024016224
000160 12 73 8c 3e 7b 80 66 ba ac 48 86 3e 77 f7 97 bd
       0.27431542 -0.0008792949 0.2622732 -0.07420247
000170 49 4b be 3c c4 84 0e 3d 16 4a 39 bc 8f c5 f5 3d
       0.023229258 0.034794584 -0.011309167 0.12000572
000180 a2 08 2d 3d 41 27 72 be 88 fd 7f be 34 24 e7 3c
       0.04224456 -0.23647787 -0.24999058 0.028215505
000190 c4 35 8d 3d 8a 45 db bd 2c ac 29 3e e5 42 c3 bd
       0.068950206 -0.10706623 0.16569585 -0.095342435
0001a0 80 25 52 be 1e a1 17 be c3 ae 43 3e c2 04 31 3e
       -0.20522118 -0.14807555 0.19109635 0.17286971
0001b0 53 c1 31 3d 10 89 80 be 62 23 ce bd df 2a ef bd
       0.04339726 -0.2510457 -0.100653425 -0.11678099
0001c0 1c 9e ab bd cb 72 11 bd 34 08 de 3d 93 cb 0c 3e
       -0.08379766 -0.035509866 0.10841408 0.13749532
0001d0 21 cf ae 3c 68 ab 77 3e 06 bf 4c bd b5 eb 01 bd
       0.021339001 0.2418648 -0.04998686 -0.03171893
0001e0 95 94 16 bd f2 77 19 be 3e 2a 4a b8 9c 4f 64 be
       -0.036762793 -0.14987162 -4.8199894e-05 -0.22295994
0001f0 c5 2a 29 3c 30 c3 3d 3e 14 ce f7 3c 85 84 59 3e
       0.010325138 0.1853149 0.030249633 0.21241958
000200 67 55 26 be 59 ce 2b bd 7c 9f 6f be 8c e7 3a 3e
       -0.16243516 -0.041944835 -0.23400682 0.1825239
000210 96 cb 6a be fb 56 f7 3c 5b f2 33 3e b9 95 1d be
       -0.22929224 0.030192843 0.1757292 -0.15389146
000220 55 35 50 3e cb ca 3b be 68 39 79 3d 2a 87 59 3e
       0.20332845 -0.18339078 0.060845762 0.21242967
000230 44 96 93 bd aa d6 99 bc 6d f3 51 be 0e 6e 85 bd
       -0.07206395 -0.018779118 -0.20503016 -0.06515132
000240 78 e5 30 be d6 08 f9 3d 8b ec 37 3d 38 d2 32 3e
       -0.17275035 0.121598884 0.04490332 0.17463005
000250 ba 8b 3e 3e 07 fe 11 3d 1d 30 f5 3d 82 81 47 be
       0.18607989 0.03564265 0.119720675 -0.19482997
000260 db fd 3f 3e d6 ed 80 be 2d 34 48 be 80 55 88 be
       0.18749182 -0.25181454 -0.19551153 -0.2662773
000270 ea 3a e3 3d 35 a3 1c 3d 7b 02 e8 3c b9 ee f7 3d
       0.11095221 0.038241584 0.028321495 0.121060796
000280 6c 82 47 3e bc 59 5e 3e f3 5f d3 bd f6 0c 81 be
       0.19483346 0.21713918 -0.10321035 -0.252052
000290 59 d9 0e be c0 14 cd bc 9b 6c 46 be 45 a3 1f bd
       -0.13950099 -0.025034308 -0.19377367 -0.038974065
0002a0 ac d7 5e 3e 1e 48 03 3e c7 a9 c0 3d d3 7a 70 3e
       0.2176196 0.1282048 0.094073825 0.23484354
0002b0 ab 42 ce 3c 84 3d ad 3d 3f 6a 23 be da a7 69 bc
       0.025178274 0.08458999 -0.15958498 -0.01426121
0002c0 30 db d0 bd 41 6f 10 3e dc 2f 1f be 80 04 a7 bd
       -0.10198057 0.1410494 -0.155456 -0.08155155
0002d0 0a 34 6e bd 0b bc 81 be c0 4e 44 3e e3 9a 61 be
       -0.058155097 -0.25338778 0.19170666 -0.22031741
0002e0 8d af 7b be 7a 3b 91 bd 2c 90 83 be 6c 4a 83 3e
       -0.24578686 -0.070914224 -0.25695932 0.25642717
0002f0 0f 70 09 bd 74 75 85 be 6d b4 84 3d b1 c5 21 bd
       -0.033554133 -0.26066172 0.06479726 -0.039495174
000300 66 b8 0e bd 0f 5e fc 3b de 61 20 3d 6d 1c fb 3b
       -0.034843825 0.0077016423 0.039155833 0.0076633007
000310 33 f4 61 be 5e ff 68 3c 19 b4 82 be fe 60 a8 3d
       -0.22065811 0.0142210405 -0.2552803 0.08221625
000320 42 ad 9e bd 3e f8 ff bd 43 d5 03 be 85 58 6a be
       -0.0774789 -0.1249852 -0.12874322 -0.2288533
000330 ad 53 02 3d 12 bc 22 3e 3b 04 74 bc ec 81 6a 3e
       0.03181808 0.15892056 -0.014893587 0.22901124
000340 a0 a5 69 bd c9 d6 6c be a2 d2 f1 3b 97 71 01 3d
       -0.057042718 -0.23128809 0.0073798457 0.03160247
000350 34 b6 41 be 49 05 24 be ea 32 07 bd bc ea 40 be
       -0.18917161 -0.16017641 -0.03300754 -0.18839544
000360 a5 8a e7 ba c2 25 1c 3e ec fa 3d 3e cf 48 8a bd
       -0.0017665221 0.15248778 0.1855275 -0.067521684
000370 3e c8 64 3e 44 5b 43 3d 32 1f dc 3d 46 68 38 3e
       0.22342011 0.04769446 0.107481375 0.18008527
000380 e1 47 2e 3e c9 d9 56 be a0 29 7e 3e 51 5f 0d 3e
       0.17019607 -0.20981516 0.24820566 0.13805892
000390 02 72 07 bd 32 95 61 be f8 f2 b5 3d 3e e8 e0 bd
       -0.03306771 -0.2202957 0.08884233 -0.10981797
0003a0 2a 7e 1c be 9d f4 7c 3e 3a 1e 17 bd ca 3d f8 bd
       -0.15282503 0.24702688 -0.03689406 -0.1212116
0003b0 57 17 1d 3d cc b6 ad 3c 8c 8d 0b be ec ce 6a bd
       0.038352337 0.021205328 -0.13628215 -0.057326242
0003c0 7b 4f 7b be 30 19 e4 bd d7 1f 0d 3e 2c 1e 1b be
       -0.24542038 -0.11137617 0.13781677 -0.15148228
0003d0 51 63 5c 3e 7b 6c 86 3d 5f 2a 3b be 0f c8 4a 3e
       0.21522261 0.0656366 -0.18277882 0.19802879
0003e0 b7 14 51 3e 72 c4 23 be 7c a6 12 3d 4a 7c b0 bd
       0.20418058 -0.15992907 0.035803303 -0.08617456
0003f0 74 36 53 3e 0b 54 35 be ba d3 7e 3e ca 97 c1 bc
       0.20626241 -0.17707841 0.24885455 -0.023631949

model/encoder_3/self_attention_1/dense_8/BiasAdd/ReadVariableOp:0 f4 [21]
000000 6a 61 03 bb cc 9d 08 3c ab b6 fd bb fd aa 87 3b
       -0.0020047077 0.008338403 -0.007742723 0.0041402564
000010 57 75 c5 3b 36 30 8b 3b 41 b3 94 bb 5c 9a 93 3b
       0.006025951 0.0042476906 -0.0045379703 0.004504485
000020 bc 54 c5 bb d2 e3 5c bb 7c b6 3c ba 21 d1 c5 3b
       -0.006022064 -0.0033705127 -0.0007198823 0.006036893
000030 2b 8c 05 3c fe 74 88 bb 85 db 92 3b 41 ec 08 b9
       0.008151094 -0.004164337 0.004481735 -0.00013057982
000040 00 bf a8 3b 98 0d aa 3b b9 71 f4 3b 0f 5b dc ba
       0.005149722 0.005189609 0.007459846 -0.0016811806
000050 af c7 ec bb
       -0.0072259526

model/encoder_3/self_attention_1/dense_7/Tensordot/ReadVariableOp:0 f4 [64, 21]
000000 32 34 0b 3a ca cf 52 bc 21 32 e7 bd 94 b2 e1 3d
       0.0005310207 -0.012866924 -0.11288858 0.11020389
000010 63 ed f0 bd 40 b4 95 3d 42 80 a8 3d d3 42 3f bd
       -0.11764028 0.073097706 0.08227588 -0.046694588
000020 2a 42 c4 bd 9e 5b 12 3d 40 c9 98 bd 28 25 3d bd
       -0.09582932 0.035731904 -0.074602604 -0.046178013
000030 f9 bd f0 3c 38 d5 a2 3d b6 b4 80 3e 4a d1 f8 3c
       0.029387461 0.079508245 0.25137872 0.030373234
000040 ef d0 d7 bd bb 54 7d 3d 08 1a e7 bd 35 34 70 be
       -0.10537898 0.061848383 -0.11284262 -0.23457415
000050 4c 25 6d 3e c5 42 34 be 7d 48 a4 3c 64 62 90 be
       0.23158759 -0.17603596 0.020054096 -0.28200066
000060 00 fd 43 be 3f 20 b9 3d 80 f5 ab 3d a4 59 24 be
       -0.1913948 0.090393536 0.08396435 -0.1604982
000070 41 0b dd bd d8 46 a1 3d 26 56 8b 3e a2 1e 25 be
       -0.10793162 0.078748405 0.27214164 -0.16124967
000080 3f 01 22 3e 49 44 05 be 9c f7 36 3e 9f d5 6f be
       0.15820788 -0.1301433 0.17867893 -0.23421334
000090 e0 07 e7 bd 7d cb 3f bd 33 3c 7a be 46 72 af bd
       -0.11280799 -0.04682492 -0.24437027 -0.08566718
0000a0 69 d4 47 3e 5e 4f 59 3c 2a 13 43 3e 73 19 53 3e
       0.19514622 0.0132635515 0.1905028 0.20615177
0000b0 0b 4d 09 bd 05 e5 ba 3d d8 7f 98 bc 35 7d 67 3e
       -0.03352074 0.09125713 -0.018615648 0.22606356
0000c0 5b 4b 78 bd 6d 28 5b 3d e6 23 4f bd c6 f3 34 3e
       -0.06061874 0.05350535 -0.050571345 0.17671117
0000d0 80 94 5b 3e 2e 97 b8 3c fd b3 56 3e 69 47 02 3a
       0.21443367 0.022533026 0.20967098 0.00049697474
0000e0 77 7c 2d 3d 52 f0 41 3e fd 3f 9a bd 7f 57 8b be
       0.042355027 0.18939331 -0.07531736 -0.27215192
0000f0 1e 83 1d 3d d9 c2 08 3c 2f a9 51 be 5d ed 02 3e
       0.03845512 0.008347237 -0.20474695 0.1278586
000100 55 f2 04 be fe 4b a6 3d 2f 50 4b 3e 6e 38 59 be
       -0.12983067 0.08119963 0.19854806 -0.21212932
000110 ab 6a de bc 0f 39 0d 3e 93 09 bc 3d a5 03 ac 3c
       -0.027150473 0.13791297 0.09181514 0.020997832
000120 4a 4c f6 bd e7 bd 48 ba 54 36 71 be bf 53 3b be
       -0.1202627 -0.0007657692 -0.23555881 -0.18293665
000130 f3 24 d3 3b 29 ea 89 bd dc 99 a0 3d db 8a c5 3d
       0.0064436137 -0.06734116 0.07841846 0.09645625
000140 17 fe 40 3c 7b 6f a8 bd ac c5 52 be 01 e1 fa 3c
       0.01177933 -0.08224388 -0.20583218 0.030624868
000150 6d 85 38 be 2a ca f0 3c 0a 0e 47 3e c6 93 11 3c
       -0.18019648 0.029393274 0.19438949 0.00888533
000160 c2 19 ff 3d 0d cd 99 3d c0 be 89 be be 9f 61 bd
       0.12456085 0.075098135 -0.26903343 -0.055083983
000170 44 3b 11 be 08 91 b8 3d c1 e1 74 3b b8 23 89 3e
       -0.14182764 0.090120375 0.0037366005 0.26785064
000180 27 b0 90 3d cf 83 4e be d9 91 57 3b 54 43 2d 3e
       0.070648484 -0.20167468 0.0032893328 0.16920215
000190 80 d0 85 be 9e ed 42 3e 02 7b 11 be 82 d4 95 bd
       -0.26135635 0.19035956 -0.1420708 -0.07315923
0001a0 49 54 74 3e 31 05 2b be a2 73 7d 3e cb db 43 be
       0.23860277 -0.16701199 0.24751142 -0.19126813
0001b0 70 6b 17 be dc 0d 84 3e b1 f8 1f be 4f 7b 74 3e
       -0.14787078 0.25791824 -0.15622212 0.23875163
0001c0 b7 07 c1 3d d3 10 6e be 4c ea 0f be 67 81 72 3e
       0.094252996 -0.23248605 -0.14054221 0.23682176
0001d0 03 56 5a 3d 82 e3 37 3d 5a 75 6d be 34 a5 fd ba
       0.053304683 0.044894703 -0.23189297 -0.0019351603
0001e0 f3 fd 24 3d 77 83 fb 3d a6 0c 8d 3b a3 93 01 3e
       0.040281247 0.12280934 0.0043044863 0.12653975
0001f0 be 6d 1a 3e bc df af bd 78 0e 4e 3e 0b cb 2a be
       0.15080926 -0.08587596 0.20122707 -0.16679017
000200 18 33 2e be d6 e2 47 3e 7f e4 60 be 92 27 d9 ba
       -0.17011678 0.19520125 -0.21962164 -0.0016567579
000210 c5 09 66 be e7 3a 34 3e cd 17 95 bd da 6f ba bd
       -0.22464664 0.17600594 -0.0727993 -0.09103365
000220 29 22 a6 3d 76 27 f0 3d 12 0b 0e 3e 0b 0e ce 3b
       0.08111984 0.117262766 0.1387141 0.006288295
000230 18 99 7a be 85 19 9d 3c a8 73 27 3e 6f 25 a5 3d
       -0.24472463 0.019177208 0.16352713 0.080637805
000240 c1 86 22 be ec b1 81 3e f5 4d 4c 3e 30 97 8d 3d
       -0.15871717 0.25331056 0.19951613 0.06913602
000250 fb cd 76 3e 08 96 1f 3b 6e 4e a8 3d 84 39 53 3e
       0.24102013 0.00243509 0.08218084 0.20627409
000260 10 65 f2 3d 79 7b 0d bd 09 8d 41 be 71 54 f4 3c
       0.118356824 -0.03454158 -0.18901457 0.029825421
000270 cc 0f cc bd 37 47 d4 bd 95 b4 6f bd b4 26 eb bd
       -0.099639505 -0.10365146 -0.058521826 -0.114819914
000280 3e 53 2d 3d ac 54 76 be 9e 50 6a 3e 1a d1 87 3e
       0.042315714 -0.24055737 0.22882316 0.2652672
000290 2c 34 b1 bc 06 5d ac bd 05 1d 82 be 8c 3b 57 3d
       -0.021631323 -0.0841618 -0.25412765 0.052547023
0002a0 8c 7e 84 be 79 92 5c 3d 29 cd 8a be b3 d0 3c be
       -0.25877798 0.053850625 -0.2710965 -0.18438987
0002b0 f9 29 a7 3d d2 73 bf 3d d6 ff 0d 3e 05 80 ac bd
       0.081623025 0.09348263 0.13867125 -0.08422855
0002c0 21 22 01 3e 04 56 28 be 48 4a 10 be 30 92 cd 3c
       0.12610675 -0.16439062 -0.14090836 0.025094122
0002d0 e5 dd 03 3e 9c 5c 99 bd f5 bb 5d be 83 ed f0 3d
       0.12877615 -0.07488367 -0.21653731 0.11764052
0002e0 78 8e 6c be 27 b4 79 be b2 d3 25 3e 3c fb a9 3d
       -0.23101223 -0.24385129 0.16194037 0.08299872
0002f0 cb a4 34 3d 4b de 1d be 82 90 26 3d 6c 5e 58 be
       0.04410247 -0.1541683 0.040665157 -0.21129769
000300 0e 12 d1 3d ed 65 88 be bf d1 40 be d6 3b 96 be
       0.10208522 -0.26640263 -0.18830012 -0.29342526
000310 37 50 33 3e 41 8b 2c bd cc e1 7a bd ea ec 83 be
       0.17511068 -0.04212499 -0.061250493 -0.2576669
000320 2e 3b 87 3e a0 d5 7d 3e b5 2b 05 3e 42 45 52 3d
       0.26412338 0.24788523 0.13004954 0.05133558
000330 74 91 8d bd 71 2b 89 3d 1a e4 58 be bb 08 43 be
       -0.069125086 0.06697739 -0.21180764 -0.19046299
000340 0d 83 ec bd 1e 44 bb 3d 89 fc f9 3d 12 ee 16 3e
       -0.115484335 0.09143852 0.122063704 0.14739254
000350 f4 57 dc bc 28 8f 1d bc 41 18 69 3d 2f 02 67 bd
       -0.026897408 -0.009616651 0.056907896 -0.056398567
000360 07 7e 9d bd 5f 77 49 3e 9e 1d 77 3e a4 b1 24 3e
       -0.076900534 0.19674443 0.24132392 0.1608339
000370 cb 62 24 ba 73 a8 2e 3e fb 80 37 3e f9 bd 61 be
       -0.0006270825 0.17056446 0.17920296 -0.22045125
000380 c6 59 21 be ad 37 fb 3d fd 7c b1 bc 06 13 53 bd
       -0.15756902 0.12266479 -0.021666044 -0.051531814
000390 cc a5 85 be af 52 99 3d a2 16 42 be bd ea 5f bc
       -0.26103055 0.07486474 -0.18953946 -0.013666806
0003a0 90 56 1f 3e 8f f7 91 3e ee 4f 0e be 11 d4 60 3e
       0.15560365 0.28509185 -0.13897678 0.21955897
0003b0 64 31 f6 bd 26 3b 21 3e bf c6 3e 3e b7 c9 81 bd
       -0.12021139 0.1574522 0.18630503 -0.06337302
0003c0 03 3e 89 be 85 f2 a1 bc 6f de 27 bd 92 79 b5 bc
       -0.26805124 -0.019768963 -0.040983614 -0.022152696
0003d0 82 01 42 3e 4c 5f 6e 3e d3 b8 15 3e f9 f7 84 be
       0.18945888 0.2327854 0.14621286 -0.25970438
0003e0 aa ce ac bc b7 91 1a 3e 1b c6 d6 bd 03 e6 4e 3e
       -0.021094639 0.15094648 -0.10487004 0.2020493
0003f0 ed 4d 8e 3d 20 30 e7 bd db 54 28 be b3 11 2c 3e
       0.06948457 -0.11288476 -0.1643862 0.16803627

model/encoder_3/self_attention_1/dense_7/BiasAdd/ReadVariableOp:0 f4 [21]
000000 12 17 2b 39 9f 7b 42 ba 93 00 58 b9 11 bc b7 ba
       0.00016316425 -0.00074189337 -0.00020599579 -0.001401784
000010 9d ec 9b 39 64 4e 7b 39 b0 7a 7a b9 4d 69 8e 3a
       0.00029740194 0.00023966428 -0.00023887563 0.0010865122
000020 0c 79 62 39 76 ba 18 3a ac c8 01 3a 02 d9 39 3a
       0.00021598133 0.00058261247 0.0004950862 0.00070895266
000030 ab 47 65 3a ce 2a 31 ba 6c 20 10 ba 11 bb 5b b9
       0.0008746336 -0.00067583926 -0.00054979953 -0.00020955155
000040 4a a5 1c 3a c4 fd 34 3a a6 c2 67 b9 42 66 8b 39
       0.0005975558 0.0006904269 -0.00022102389 0.00026588334
000050 3e 42 38 ba
       -0.0007028914

model/encoder_3/self_attention_1/dense_6/Tensordot/ReadVariableOp:0 f4 [64, 21]
000000 8a 7e 21 3e 33 63 65 3e be 86 1b 3e 6f 88 6e be
       0.15770927 0.22401123 0.15188119 -0.23294233
000010 fd 54 7c be b2 57 de 3d c2 ec 28 3e 06 b4 e4 bc
       -0.24641795 0.1085657 0.16496566 -0.027917873
000020 11 fa 1d 3e 15 3d 8d bd 87 1c 81 3d 5f 26 da 3c
       0.15427424 -0.06896416 0.06304269 0.026629625
000030 3d a1 86 be 9b 21 14 be a5 80 12 3d 01 8a 21 be
       -0.2629489 -0.14465944 0.035767216 -0.157753
000040 9f 19 7f ba fc f3 54 3e cb e6 79 3e fc da b9 3d
       -0.0009731296 0.20796198 0.24404447 0.09074971
000050 7b 18 32 3e 4b 92 12 be 00 f5 64 be a3 c4 a8 bd
       0.17392151 -0.14313619 -0.22359085 -0.082406305
000060 0e 10 13 be c3 8f f5 bc 3b a8 8d 3e 6c 9c 89 3e
       -0.14361593 -0.029975777 0.27667412 0.26877153
000070 cf bc b9 bd a3 6d 40 bd f5 f9 c1 3c e8 bf 54 3e
       -0.090692155 -0.046979558 0.02367876 0.20776331
000080 51 3b 9f bd b7 d6 0a be 95 b8 2a be cd be 87 3d
       -0.077749856 -0.1355847 -0.16671975 0.06628189
000090 e0 50 2a be f0 66 43 be 7c bb 82 be 39 5c 36 bd
       -0.16632414 -0.19082236 -0.25533664 -0.044521544
0000a0 8c 5a 2d 3e 57 c9 35 bd 44 66 99 3d e3 35 0a 3e
       0.16929072 -0.044381466 0.07490209 0.13497119
0000b0 31 68 52 3d 96 c4 63 be 9e 7c 4b 3e d5 ae 94 bd
       0.051368896 -0.2224296 0.19871756 -0.07259909
0000c0 a4 16 90 3d 42 66 19 be 32 c6 78 3e 5a 8c 82 3e
       0.07035568 -0.14980415 0.24294356 0.25497705
0000d0 6b 59 c0 bc 8b 14 3c 3d ec 3a c4 3d 1b 99 1d be
       -0.023480138 0.04591803 0.09581551 -0.15390436
0000e0 ce 10 84 be b3 82 8e bd 8a b7 be bd 4d 07 cd bd
       -0.2579407 -0.06958523 -0.09312351 -0.10011158
0000f0 af d9 99 3c 13 f1 42 bd 17 8a e4 bd c8 c1 38 bd
       0.018780557 -0.047593188 -0.11159151 -0.04510668
000100 3a 3e 4f 3e 6d 46 7a 3e d7 36 84 3b 69 f6 02 3d
       0.20238581 0.24440928 0.0040348577 0.031973276
000110 1b b8 e8 bb 29 fc 7a 3e 12 e2 50 be 3d 13 03 3e
       -0.007102025 0.24510254 -0.20398739 0.12800308
000120 a5 28 3e be 3f 91 4f be 2d 8e 5f bd da 2c 84 bd
       -0.18570192 -0.2027025 -0.05457895 -0.06453867
000130 8b 4c e5 bd f2 5d de bd 43 f0 63 be 67 00 e0 3d
       -0.1119624 -0.108577624 -0.22259621 0.10937577
000140 dd 35 39 3e 1e 13 25 3e 4f 88 79 be f5 10 a8 3d
       0.18086953 0.16120574 -0.24368404 0.08206359
000150 85 1f 20 bc 6c e7 d7 3d e7 9e 02 3e 1f f2 64 be
       -0.00977314 0.10542187 0.12755929 -0.22357987
000160 09 a7 1a 3e 9c 1e 0f be ed 22 84 3e 28 3f a4 bd
       0.15102781 -0.1397652 0.25807896 -0.080198586
000170 78 e5 23 3c 7f 68 3b be 87 da 12 be 97 d0 4e 3e
       0.01000344 -0.18301581 -0.14341174 0.20196758
000180 95 00 b4 bd b6 41 34 3e d4 02 bc bd 46 94 a7 bb
       -0.087891735 0.17603192 -0.09180227 -0.005114111
000190 fd 8f bc 3d ea b4 46 3e f0 ec 0c be 9c 84 74 3e
       0.09207151 0.1940495 -0.1376226 0.23878711
0001a0 75 a9 81 3e 4c 67 1d 3d b6 0f 09 3d 89 27 77 3d
       0.25324598 0.03842859 0.03346225 0.060340438
0001b0 6b a5 bc bd 1c 90 8b bd ae a0 49 3e 6b f4 20 3e
       -0.092112385 -0.06814596 0.196902 0.15718238
0001c0 a5 92 ca 3d e4 39 db 3d b8 81 d8 bc 23 69 ac bd
       0.098912515 0.10704401 -0.026429042 -0.08418491
0001d0 10 60 c3 3c d8 80 e2 bd 2f d8 35 be f8 00 cb 3c
       0.023849517 -0.11059731 -0.17758249 0.024780735
0001e0 0e 47 b0 3d 3c 99 7c 3e 37 4a ba 3d 7b 10 d1 3d
       0.086073026 0.2466783 0.090961866 0.102082215
0001f0 43 ee d6 3d 4d 30 38 3e df 0a ab bd 6c 99 51 be
       0.104946636 0.17987175 -0.08351683 -0.20468682
000200 59 68 3f be 27 8d 32 3e 9f db 34 bd 7c f8 61 be
       -0.18692149 0.17436658 -0.04415476 -0.22067446
000210 cb d8 09 3d 1e 42 7d be 92 82 93 3d d0 ec 4d be
       0.033654016 -0.24732253 0.07202639 -0.20109868
000220 dc 19 42 3e 10 87 72 bd 03 eb 83 bd 89 23 7f 3e
       0.18955177 -0.059210837 -0.06441309 0.249159
000230 d8 ff db 3d b1 db 5f 3d de 36 86 be 3f 7c 84 3e
       0.10742158 0.054652873 -0.26213735 0.25876042
000240 eb c2 b8 3d 4c 20 be 3d ed 40 6d be 01 8e 83 3e
       0.09021553 0.09283504 -0.23169298 0.25694278
000250 12 f9 05 3d f5 22 1f 3e 81 0e ca bc 00 e3 07 bd
       0.032708235 0.15540679 -0.02466512 -0.03317547
000260 d9 64 21 bc 73 a1 2b be 6d 39 b1 bd de 71 49 bd
       -0.009850704 -0.16760807 -0.08653531 -0.049180858
000270 f9 64 36 3e a0 46 49 3e 8f f5 6c 3e 20 e7 f3 3d
       0.17811956 0.19655848 0.23140548 0.11909318
000280 21 39 5b be a7 2c c7 3d a7 3a 69 3e 49 c3 96 bb
       -0.21408512 0.09725314 0.2277628 -0.0046009165
000290 54 b3 04 bd d3 bd 45 3c 5c e4 43 be 45 c4 01 be
       -0.032397583 0.012069183 -0.19130081 -0.12672527
0002a0 28 77 36 be 15 27 2a 3e 80 de 4f 3e 97 4e 28 3e
       -0.17818892 0.16616471 0.20299721 0.1643623
0002b0 37 77 46 bc c7 cf 68 be ce fb 29 3e 4b 57 30 3e
       -0.012113384 -0.22735511 0.16599962 0.172208
0002c0 c7 aa 31 be bc e1 70 3e 85 df 6a 3e df 1c a5 3d
       -0.17350303 0.23523611 0.22936828 0.08062147
0002d0 f0 7c 97 bd 94 e3 7d be d8 b3 c7 3c 7c 91 6f 3e
       -0.07396877 -0.24793845 0.024377748 0.23395342
0002e0 8d b7 e3 bd e1 22 6a be 52 49 fc bc 85 8a a1 3d
       -0.11118994 -0.22864868 -0.03079668 0.07887749
0002f0 7f e6 51 3e 74 7b 98 bd 1f 94 00 3e d0 05 7e be
       0.20498084 -0.07445422 0.12556504 -0.24806905
000300 1f de 92 be d0 a4 61 be 66 89 92 3d ad f5 f3 3d
       -0.2868509 -0.22035527 0.07155113 0.11912093
000310 c9 af 68 3e 7d 59 78 3e 07 3c 36 3e 1d 44 68 3d
       0.22723307 0.24252887 0.17796336 0.056705583
000320 3c 72 45 be c2 d3 35 be 02 46 96 bd 1d d7 06 be
       -0.19281858 -0.1775656 -0.07337572 -0.13167997
000330 68 c3 8f 3c a9 2d e3 3d e4 76 67 3e 7e 69 d3 ba
       0.017549232 0.11092693 0.22603947 -0.0016129462
000340 c5 aa d0 3d b8 c2 2a be 41 19 2b be ab fa 8a bd
       0.10188822 -0.16675842 -0.16708852 -0.06786092
000350 0d a2 3d be f3 86 2b be 40 43 33 3c c8 bf 0d 3e
       -0.18518849 -0.16750698 0.010941327 0.1384269
000360 23 fa 11 bc f6 38 1d bd 19 d7 25 be 8a f2 5d be
       -0.008909735 -0.0383844 -0.16195334 -0.21674553
000370 35 f6 7f be cd 56 c4 bd e7 b4 60 bd b0 43 09 be
       -0.24996264 -0.095868684 -0.054860022 -0.13404727
000380 b3 1b bd bc be 4e 4a bc df 26 57 3d 4d 67 68 be
       -0.023084497 -0.012347875 0.052527305 -0.22695656
000390 d4 29 88 3e 47 87 38 bd 43 6f 0c 3e df a0 46 be
       0.26594412 -0.045050886 0.13714318 -0.19397305
0003a0 b8 71 3f 3d 24 45 89 3d a6 88 63 be 5e c7 21 3d
       0.04673931 0.06702641 -0.22220096 0.039496772
0003b0 44 b4 4f 3d 0e db ec bc d8 79 36 3e d8 89 5c 3e
       0.050709024 -0.028913047 0.17819917 0.21536958
0003c0 f2 61 b6 bd f0 64 29 3e e3 f9 8f 3d 3e fa 4c be
       -0.089054 0.16542411 0.07030084 -0.20017335
0003d0 c5 42 62 3e 82 e2 bd 3d b2 f0 1d 3e 74 a0 ee bd
       0.22095783 0.092717186 0.15423849 -0.11651698
0003e0 31 73 33 bc 5d 72 2f 3b 76 c8 54 be 00 13 6a be
       -0.010952757 0.0026771047 -0.20779595 -0.2285881
0003f0 58 4f b0 bd 20 a1 0c 3c 27 a4 b9 bd e9 7d 18 bd
       -0.086088836 0.008583337 -0.09064513 -0.037229452

model/encoder_3/self_attention_1/dense_6/BiasAdd/ReadVariableOp:0 f4 [21]
000000 06 94 1b 3c 09 4c 77 3c d3 ef 5a 3b 22 2e 2f 3c
       0.009495741 0.015093812 0.0033407107 0.010692151
000010 fd 40 e2 38 bb c8 bb 39 67 a8 f3 bc 01 3a e2 bb
       0.00010788625 0.00035816975 -0.029743386 -0.0069038873
000020 75 46 4d 3c 13 9f 95 3c 35 20 83 bc 79 91 21 3b
       0.012529005 0.018264329 -0.016006568 0.002465336
000030 5f 44 14 bc 9a 72 87 bc 26 ed e2 3b a1 2a 75 3c
       -0.009049504 -0.016534138 0.006925243 0.014963777
000040 2c 3d 93 3a aa 4e 7e 3c 31 db 06 bb 20 f9 98 3c
       0.0011233441 0.015521685 -0.0020577426 0.01867348
000050 45 23 82 bc
       -0.015885958
